assetsclothes/classifier_model.tflite (tflite, 823520 bytes, 8 tensors)

conv2d_10/bias f4 [32]
000000 2f 96 44 bc 98 92 d9 3d 97 63 b2 3d 33 c8 af 3d
       -0.011998697 0.10623664 0.087104015 0.08583107
000010 d9 7c f1 bd 1d 4b 5f bc e8 b4 3b be eb be 0f bd
       -0.11791391 -0.013628748 -0.18330729 -0.035094183
000020 7f 33 ad bd 1f ab a1 bc b4 27 a3 bc de c1 9c 3c
       -0.08457088 -0.019734917 -0.019916393 0.019135412
000030 ea e0 40 3d 6c 57 e3 bc 0d f2 5d bd e4 e0 1c be
       0.047089495 -0.027751647 -0.054185916 -0.15320164
000040 4b e1 2b bd e8 29 db 3e 0f 49 82 bd b1 1c 0e 3c
       -0.041962903 0.4280541 -0.06361591 0.008673833
000050 bb 9f d2 bd 48 ce f3 bc c0 b2 ef 3d 98 52 0a be
       -0.102843724 -0.029761449 0.11704016 -0.1350807
000060 67 9f ac 3d db 55 a6 bd 9a 4e 50 be 05 ee ec 3d
       0.08428841 -0.081218444 -0.20342484 0.11568836
000070 2f 3b 3a 3e ec 5f 85 bd 0e 8b 9b 3d 7e 79 9a bb
       0.18186639 -0.06512436 0.07594882 -0.00471419

conv2d_9/bias f4 [32]
000000 5b 5f 4e 3e 61 2e 01 bd 16 43 6b bd ec 18 18 be
       0.20153563 -0.03153837 -0.057437025 -0.14853257
000010 55 3f e4 bd df 8f b4 bd d4 59 7f bc a6 2d 36 bc
       -0.11144892 -0.08816504 -0.015585382 -0.011119282
000020 a3 da 02 bc 91 72 dc 3c 36 ba df bb 38 3e 64 bd
       -0.007986697 0.026910098 -0.006827618 -0.0557234
000030 d1 49 96 bd 76 cc b2 bd 59 75 42 3b cb 2a 28 bc
       -0.07338298 -0.08730404 0.0029671995 -0.010264109
000040 be bc fe bc bd 7e ed b9 91 24 4e 3d 9b 4f 51 bc
       -0.031095859 -0.0004529859 0.05032784 -0.012775327
000050 c7 b0 92 3d 98 14 85 be 9e e9 7b ba 6c 32 10 bd
       0.07162624 -0.25992274 -0.0009609702 -0.035204336
000060 fe f6 b6 be 2f 20 95 bd ee a5 cb 3d 2d 42 84 be
       -0.35735315 -0.07281529 0.09943758 -0.25831738
000070 e4 1e 7e bd f3 61 93 3c f7 25 3b bd 98 cd 19 be
       -0.06204118 0.017991042 -0.045690503 -0.15019834

dense_10/bias f4 [7]
000000 18 89 26 3c a5 df e3 bd 83 08 05 3e 16 d9 ba be
       0.010164522 -0.11126641 0.12991528 -0.36493748
000010 77 75 7d be 5e d6 ae 3d 92 bb 3f 3e
       -0.2475184 0.08536981 0.18723896

dense_9/bias f4 [128]
000000 da cb c4 bb 2e 21 95 bc 76 2f 16 bd f0 b1 c4 3d
       -0.0060057463 -0.018204298 -0.036666356 0.096042514
000010 d1 f0 cf bd 05 fc e6 bc b4 a4 b1 bc 41 fa 04 3d
       -0.10153354 -0.028196344 -0.021684982 0.032465223
000020 77 4e 1a bd a7 96 1b bd 69 cb 93 bd 41 08 95 3d
       -0.037672486 -0.03798547 -0.07216532 0.07276965
000030 e9 9d 66 be 47 ec 5d 3c e4 45 5b 3e bf fd 41 3e
       -0.22521175 0.013545102 0.2141338 0.18944453
000040 32 34 11 bd a4 b0 fa bc 94 75 ea 3d 17 55 1b bd
       -0.035450168 -0.030601807 0.114482075 -0.037922945
000050 84 4a 0f bd 08 17 c3 bb 4b 8c 04 bc 3c 41 a1 3e
       -0.034983173 -0.0059536733 -0.008090089 0.31495082
000060 7d 47 2d bd 32 93 82 bc 8a 9a 17 3d 55 9f 0a bd
       -0.042304505 -0.015939329 0.037012614 -0.033843357
000070 f7 dd 39 bc e3 6d e1 bc 80 d2 21 bc 1f eb 3f 3e
       -0.011344424 -0.027518218 -0.009876847 0.18742035
000080 f2 6c a2 bc 3d 18 c3 bb ef 7f e5 3b 38 76 06 bd
       -0.01982734 -0.005953817 0.0070037763 -0.032827586
000090 df 21 49 bd cf 28 37 bd fb ab 4f 3d c8 b6 45 bd
       -0.049104568 -0.044716652 0.050701123 -0.048270017
0000a0 37 29 e8 bc e8 16 c3 bb c0 c8 5e bd ec 56 03 3d
       -0.028339965 -0.0059536584 -0.05439067 0.032065317
0000b0 7c 19 9c bd 56 c6 63 bd 4b 37 bd 3e bb 0e c3 bb
       -0.07622048 -0.05560907 0.36956248 -0.0059526837
0000c0 b3 a2 23 bc af 17 c3 bb 90 76 39 3e ab d6 4c bc
       -0.009987521 -0.005953751 0.18111634 -0.012502353
0000d0 ee 4c 20 bd 0f 18 0f 3e 93 98 04 bd 62 15 c3 bb
       -0.039135866 0.13974021 -0.03237207 -0.0059534768
0000e0 13 13 ad bb 78 66 99 bd 35 14 c3 bb c9 c4 00 bd
       -0.005281815 -0.074902475 -0.0059533366 -0.03143767
0000f0 f9 e4 7f 3e 02 9f b2 bc 33 72 4b bd 38 4f ad 3d
       0.2498969 -0.021804336 -0.049669456 0.084623754
000100 62 30 e6 bc 05 0f 24 3e 7f b6 e2 bd ce 8a 6a 3e
       -0.028099243 0.16021354 -0.110699646 0.22904512
000110 55 5c c1 3d e0 ee 19 bd d4 ea ae bc 1a d5 e1 bb
       0.09441439 -0.037581325 -0.02135221 -0.0068918588
000120 db 0a c3 bb 1d ef b3 3e db 3c 52 bd 19 19 0a bd
       -0.005952222 0.35143366 -0.051327568 -0.03371534
000130 e1 06 e1 3d 40 8e ba 3e 47 bc 28 3e 4b 8c 92 bc
       0.1098764 0.36436653 0.16478072 -0.017889163
000140 c3 14 c3 bb 9b 95 cd bc aa cd e2 bc 11 cd 6b bd
       -0.0059534027 -0.025095752 -0.027685959 -0.057568613
000150 d9 b6 8a 3d aa 5a a2 3d 3b 6a ba 3d 45 a8 35 3e
       0.06773157 0.07927449 0.09102293 0.17739971
000160 e4 cc 19 bd fa 3f 35 bd d3 87 84 3e 64 b1 70 3d
       -0.037548915 -0.044250466 0.25884876 0.058762923
000170 26 25 a1 3d a6 23 a3 3e c5 65 e8 3d 46 0f 35 bd
       0.078684136 0.31863135 0.11347536 -0.04420402
000180 f1 91 83 be 92 a8 e5 bb 67 47 c6 3e c4 58 1f 3d
       -0.25697282 -0.0070086205 0.3872635 0.038903013
000190 94 85 a5 3e 8b 9f 2b 3e 25 32 c8 3d a3 9e 17 3e
       0.32328475 0.1676008 0.09775189 0.14806609
0001a0 da a8 ef 3c 64 24 78 be 4b 68 2a bd 25 c8 90 bd
       0.02925532 -0.24232632 -0.041603368 -0.070694245
0001b0 05 d9 41 3d af 0b b1 3d b7 72 d5 bb 17 48 54 3d
       0.047326107 0.086448066 -0.006513919 0.051826563
0001c0 3f 17 c3 bb 23 16 c3 bb b3 de 32 3e f9 a0 4b 3e
       -0.005953699 -0.0059535666 0.17467766 0.19885625
0001d0 6a 71 1a bd 37 c7 04 be 14 78 27 be 50 63 f8 bc
       -0.037705816 -0.1296662 -0.163544 -0.030320793
0001e0 ed 4d 12 3d 4d 66 63 3c eb 2d 06 bd a5 09 c3 bb
       0.035718847 0.013879371 -0.032758635 -0.0059520775
0001f0 24 d8 08 3e 8f 3c b2 3c 14 4d 18 bd 69 58 69 bd
       0.13363701 0.021757392 -0.037182882 -0.05696908

dense_10/MatMul f4 [7, 128]
000000 fc 5d 49 3e d4 aa 80 3e 8e af 5a be a0 01 95 3e
       0.19664758 0.25130332 -0.21356031 0.29102802
000010 5d 67 e2 3e 66 3f f6 bd 18 dd 11 bf 1b 31 b9 bd
       0.44219485 -0.12023811 -0.5697799 -0.09042569
000020 2d 95 ad 3c 11 e9 15 be f7 6f 21 bd fe 52 91 3e
       0.021189297 -0.14639689 -0.03941342 0.2838363
000030 a3 09 ec 3d b1 a5 fc 3d e8 04 86 3e 39 51 ee be
       0.115252756 0.12336291 0.26175618 -0.46546343
000040 7b 6c 18 be 2f 48 59 be 3e 83 0e be ca 86 36 3e
       -0.14885132 -0.21218942 -0.13917252 0.17824855
000050 b9 5a c7 bd d9 e7 35 bd b5 91 8f 3e cb 28 21 be
       -0.09734101 -0.04441056 0.28040853 -0.15738218
000060 38 55 04 3e c9 1a 12 3e da c2 77 be b1 a2 c4 3d
       0.12923133 0.1426803 -0.24195424 0.096013434
000070 1a 4e 73 be f1 6f 1d 3d 2f 2d 12 3e 7e 95 34 bd
       -0.23760262 0.038436834 0.14275049 -0.04408788
000080 b5 c1 af bd 61 20 18 be 45 56 e4 3c df 40 aa bd
       -0.085818686 -0.14856102 0.027873168 -0.083131544
000090 55 84 77 3c b6 7c 36 bd 6f 1e e2 be 75 df fc 3c
       0.015107234 -0.044552527 -0.44163844 0.030868271
0000a0 92 cf 41 be 47 b1 51 be a7 eb 22 be b0 56 a9 be
       -0.18926838 -0.20477782 -0.15910207 -0.3307395
0000b0 8e fa eb bd 10 79 83 be 3b a1 4f 3d 9c ee 37 bd
       -0.11522399 -0.256783 0.05069087 -0.04490529
0000c0 d3 5c 28 3e 94 77 45 be 7c e2 ca 3d d6 3a 93 3e
       0.1644166 -0.19283897 0.0990648 0.28755826
0000d0 6e 83 4c 3e f9 7b 11 bf f9 d4 f8 3c 63 fd 40 be
       0.19972011 -0.5682979 0.03037499 -0.1884666
0000e0 19 47 24 be 02 87 40 be fb 78 31 3c 7d 85 79 bd
       -0.16042747 -0.18801501 0.010832067 -0.06091832
0000f0 98 b5 c6 be 41 f6 84 be 96 d0 81 bc 9c cb b7 be
       -0.3881042 -0.25969127 -0.015846532 -0.3589753
000100 98 62 3f be e1 da bc be 41 bf 25 bc b5 86 d5 be
       -0.18689954 -0.3688574 -0.010116399 -0.41704336
000110 8e 2d 84 3e 3c a2 41 be e1 46 1e bc cb c2 d5 3d
       0.25816005 -0.18909544 -0.009660454 0.104375444
000120 fa 42 f3 3d 48 0a 36 3d 14 62 66 be e8 ac 09 be
       0.11878009 0.0444434 -0.22498351 -0.13444865
000130 a4 45 84 be c1 56 67 be 0e 61 3f 3d b0 03 27 3e
       -0.25834382 -0.22591688 0.046723418 0.1631
000140 23 18 4b 3d 40 14 4f be cb b8 1f 3e bc c8 c4 3d
       0.049583565 -0.20222569 0.15597837 0.096085995
000150 8f 04 9d be 37 cf a0 3d 72 cc d5 3d fd 18 8f 3d
       -0.3066754 0.07852023 0.104393855 0.06987188
000160 5c 68 ba 3e e5 4b 15 3e e4 5c 05 3e 46 c0 71 3e
       0.36407745 0.14579733 0.13023716 0.23608503
000170 dc 45 54 3e d3 0f 4a 3d 20 46 41 be dc de 64 3e
       0.20729774 0.049331497 -0.18874407 0.22350639
000180 44 f1 5e 3c 55 23 1f bd b9 aa 51 3e 18 9e 09 bf
       0.013607327 -0.038852055 0.20475282 -0.53756857
000190 aa 55 5e be 90 53 a8 be c8 8f e2 3d a7 d6 40 3e
       -0.21712366 -0.32876253 0.1106258 0.18831883
0001a0 5e be 32 be 56 8a 69 3e 3e c9 2b 3e e6 4c 0c be
       -0.17455432 0.22806677 0.16775987 -0.1370121
0001b0 f4 8a 93 bc 1d 15 c7 3e 8d 29 58 be 65 70 aa 3d
       -0.018010594 0.38883296 -0.211096 0.08322219
0001c0 8c 02 01 be 2f 79 69 3d 68 fd 26 3e 0c 14 47 bc
       -0.12598628 0.057000335 0.16307604 -0.012150776
0001d0 fa 3a 12 bd 1a ff a1 bd 6c 54 42 3e 08 e2 36 be
       -0.035700776 -0.07909985 0.18977517 -0.17859662
0001e0 6b 68 ea 3d 98 bc 59 3e a7 1f e7 3d 59 00 f6 bd
       0.114456974 0.21263349 0.11285334 -0.12011785
0001f0 66 a4 35 bc d9 9e 99 bd 7b 3e 48 be 44 6d 76 3e
       -0.011086559 -0.07501001 -0.19555084 0.24065119
000200 1f 45 34 be 25 5a 00 bf 72 59 6b be 4f 80 13 3d
       -0.17604493 -0.5013755 -0.2298334 0.036011036
000210 ff 6b 60 3d a0 7a 05 bd 28 73 5f 3e 9e 10 cd 3d
       0.054790493 -0.032587647 0.21821272 0.10012935
000220 47 02 17 be 76 de 32 3e 3a 20 24 bc 97 8a 38 be
       -0.14746962 0.17467675 -0.010017449 -0.18021618
000230 6d 3d e3 3d 9d ff 19 3e a8 32 bc 3e 84 55 0e 3e
       0.110957004 0.15038915 0.36757398 0.13899809
000240 5b b6 f9 3d 47 1f a2 bc 4c d4 2b be 8b 1e 4c 3d
       0.12192985 -0.019790305 -0.16780204 0.049833816
000250 31 b5 0e be 03 ae 41 3e 74 f4 d2 be 03 59 a8 be
       -0.13936307 0.18914036 -0.41202128 -0.3288041
000260 11 2d 09 be 44 fa 1d bd 26 83 43 be bd 1e ef bd
       -0.13396098 -0.03856875 -0.19092998 -0.11675785
000270 f9 2a 5b 3e 6e ba e1 bd 19 df 73 be 3e a6 61 bd
       0.21403112 -0.11021887 -0.23815574 -0.05509018
000280 1d f1 12 be 73 c7 0c be c8 96 4b 3e 95 2c 15 3e
       -0.1434979 -0.13747959 0.19881737 0.14567788
000290 8e d3 a0 bd 14 bc a9 3e 75 96 42 be 88 68 73 be
       -0.07852851 0.33151305 -0.19002707 -0.23770344
0002a0 ae 25 81 3b cd 8e e3 bd c4 48 cc 3d fa a0 5b 3e
       0.0039412593 -0.111112215 0.099748164 0.21448126
0002b0 1a 74 1d be db 9c 52 3e e8 1b f9 3d b8 8c 24 bc
       -0.1537632 0.20567648 0.12163526 -0.010043316
0002c0 45 e1 72 bd 2c 68 97 3d af 12 02 3f 6a f4 04 be
       -0.059296865 0.07392916 0.5080976 -0.12983862
0002d0 b7 c1 7f 3d cb ab 90 3e 5b bd 5d be 73 17 2f bd
       0.0624406 0.28256068 -0.21654265 -0.042746972
0002e0 4b 1c 22 be 5b 3d 88 3e 14 65 16 bd 69 fd 82 3d
       -0.15831105 0.2660931 -0.03671749 0.063959904
0002f0 4c c2 d4 3e 85 07 29 be d8 c3 06 bd 96 fb 96 3e
       0.41554487 -0.16506775 -0.032901615 0.2948882
000300 83 7e 50 3d ee 4b 68 3e 02 6e 9f be 6b c0 a1 3d
       0.0509019 0.22685215 -0.31138617 0.07898029
000310 e1 d8 aa be 91 72 2c 3e f0 56 58 3d cb 7b 8e 3d
       -0.3336859 0.16840579 0.052817285 0.069572054
000320 61 60 ab bd 5e e7 5b be 50 5a 83 be d1 06 1a be
       -0.08367992 -0.21474978 -0.2565484 -0.15041663
000330 51 2b 6d be da bc a9 be dd 5c c9 bd b8 ec 2d be
       -0.23161055 -0.33151895 -0.098321654 -0.16984832
000340 28 1b 5b bd 48 f4 0c be 18 2b d2 bd fd 16 91 bb
       -0.053492695 -0.13765061 -0.10262126 -0.0044277892
000350 b2 08 55 3e 39 03 1a 3d 5a c1 f8 bd e2 e8 58 3c
       0.20804098 0.03760073 -0.12146254 0.013239117
000360 64 f6 ce be fd 5d c9 3d 99 9d 5d 3e d8 3c 64 bc
       -0.40422356 0.0983238 0.2164215 -0.013930522
000370 29 fa 53 3e 5a 34 65 3d 2c 23 dc be a5 75 9b 3e
       0.20700897 0.05595813 -0.42995584 0.30363193
000380 ae 30 a7 bd 10 67 b3 3d 2e d2 d4 3d 4e a5 91 be
       -0.08163582 0.08759892 0.10391651 -0.2844643
000390 0b d1 b5 3e 10 51 c3 bc 16 4d cd be 9d b3 1d bd
       0.3551105 -0.023842365 -0.40097874 -0.03850137
0003a0 af 94 6a 3e 4e 3b 0b 3e 72 d6 54 be 2b 7c 9e bd
       0.22908281 0.13596842 -0.2078493 -0.07738527
0003b0 e8 88 ac 3e 19 e6 5e 3e cc 9e c6 bd 72 e4 e6 3c
       0.336982 0.21767463 -0.09698257 0.028185103
0003c0 2a 8c 99 bd 77 6a 50 3e bd e4 a9 be 44 9d 26 3e
       -0.07497437 0.20353113 -0.33182326 0.1627093
0003d0 b7 fb 14 3e 5d 52 50 3e 9f 1e 43 3e 84 34 d2 bd
       0.14549147 0.20343919 0.1905465 -0.10263923
0003e0 8c c3 fe 3d ca a9 8d 3d 0e ad e5 bd e3 18 a8 bd
       0.12439641 0.0691715 -0.11214648 -0.08207872
0003f0 60 57 24 3d e0 77 b8 3d f6 76 8b bd 37 41 40 be
       0.04012239 0.09007239 -0.068097994 -0.18774877

dense_9/MatMul i1 [128, 6272] scale=0.0089302985 zero_point=0
000000 03 00 02 02 02 00 fe 00 01 01 fe fe fe ff 02 ff
       0.026790895 0.0 0.017860597 0.017860597 0.017860597 0.0 -0.017860597 0.0 0.0089302985 0.0089302985 -0.017860597 -0.017860597 -0.017860597 -0.0089302985 0.017860597 -0.0089302985
000010 fd 03 fe 02 ff 01 01 03 02 00 ff ff fb 00 02 fe
       -0.026790895 0.026790895 -0.017860597 0.017860597 -0.0089302985 0.0089302985 0.0089302985 0.026790895 0.017860597 0.0 -0.0089302985 -0.0089302985 -0.044651493 0.0 0.017860597 -0.017860597
000020 02 01 01 fe 02 02 fe 00 03 00 02 01 00 01 03 fd
       0.017860597 0.0089302985 0.0089302985 -0.017860597 0.017860597 0.017860597 -0.017860597 0.0 0.026790895 0.0 0.017860597 0.0089302985 0.0 0.0089302985 0.026790895 -0.026790895
000030 04 fe ff fd 01 01 00 00 02 ff ff fe fe 00 01 02
       0.035721194 -0.017860597 -0.0089302985 -0.026790895 0.0089302985 0.0089302985 0.0 0.0 0.017860597 -0.0089302985 -0.0089302985 -0.017860597 -0.017860597 0.0 0.0089302985 0.017860597
000040 03 fd 03 02 02 fc 01 fd 02 03 00 fd 01 03 03 01
       0.026790895 -0.026790895 0.026790895 0.017860597 0.017860597 -0.035721194 0.0089302985 -0.026790895 0.017860597 0.026790895 0.0 -0.026790895 0.0089302985 0.026790895 0.026790895 0.0089302985
000050 ff ff 03 00 fc ff fe 01 fe fd fc fb fb fe fd ff
       -0.0089302985 -0.0089302985 0.026790895 0.0 -0.035721194 -0.0089302985 -0.017860597 0.0089302985 -0.017860597 -0.026790895 -0.035721194 -0.044651493 -0.044651493 -0.017860597 -0.026790895 -0.0089302985
000060 03 ff ff fe fd fc ff fc 03 fd ff fe fd 02 02 02
       0.026790895 -0.0089302985 -0.0089302985 -0.017860597 -0.026790895 -0.035721194 -0.0089302985 -0.035721194 0.026790895 -0.026790895 -0.0089302985 -0.017860597 -0.026790895 0.017860597 0.017860597 0.017860597
000070 00 00 fd 01 02 fc fe ff fd 02 01 01 ff 01 ff fe
       0.0 0.0 -0.026790895 0.0089302985 0.017860597 -0.035721194 -0.017860597 -0.0089302985 -0.026790895 0.017860597 0.0089302985 0.0089302985 -0.0089302985 0.0089302985 -0.0089302985 -0.017860597
000080 fd 00 ff 02 fe 03 fc fc 00 01 02 00 fc ff fe ff
       -0.026790895 0.0 -0.0089302985 0.017860597 -0.017860597 0.026790895 -0.035721194 -0.035721194 0.0 0.0089302985 0.017860597 0.0 -0.035721194 -0.0089302985 -0.017860597 -0.0089302985
000090 fd ff 01 02 00 00 01 fe 02 fd fe 00 fd fc ff 02
       -0.026790895 -0.0089302985 0.0089302985 0.017860597 0.0 0.0 0.0089302985 -0.017860597 0.017860597 -0.026790895 -0.017860597 0.0 -0.026790895 -0.035721194 -0.0089302985 0.017860597
0000a0 fe 00 fb 01 02 fe ff 02 00 01 fe 01 01 fd fe 00
       -0.017860597 0.0 -0.044651493 0.0089302985 0.017860597 -0.017860597 -0.0089302985 0.017860597 0.0 0.0089302985 -0.017860597 0.0089302985 0.0089302985 -0.026790895 -0.017860597 0.0
0000b0 00 01 fc ff fe 02 ff 01 03 00 01 01 fe 02 01 ff
       0.0 0.0089302985 -0.035721194 -0.0089302985 -0.017860597 0.017860597 -0.0089302985 0.0089302985 0.026790895 0.0 0.0089302985 0.0089302985 -0.017860597 0.017860597 0.0089302985 -0.0089302985
0000c0 03 01 fc ff 03 00 fd 00 fd fd fe 00 ff 02 ff 00
       0.026790895 0.0089302985 -0.035721194 -0.0089302985 0.026790895 0.0 -0.026790895 0.0 -0.026790895 -0.026790895 -0.017860597 0.0 -0.0089302985 0.017860597 -0.0089302985 0.0
0000d0 02 01 fd 01 02 fe 02 02 01 00 03 00 fb fd fe fe
       0.017860597 0.0089302985 -0.026790895 0.0089302985 0.017860597 -0.017860597 0.017860597 0.017860597 0.0089302985 0.0 0.026790895 0.0 -0.044651493 -0.026790895 -0.017860597 -0.017860597
0000e0 03 fe fc 03 00 fe fd fd 00 fd fd 02 01 01 02 01
       0.026790895 -0.017860597 -0.035721194 0.026790895 0.0 -0.017860597 -0.026790895 -0.026790895 0.0 -0.026790895 -0.026790895 0.017860597 0.0089302985 0.0089302985 0.017860597 0.0089302985
0000f0 00 fe 03 02 fc fd ff fe fd ff 03 ff ff fd 03 fe
       0.0 -0.017860597 0.026790895 0.017860597 -0.035721194 -0.026790895 -0.0089302985 -0.017860597 -0.026790895 -0.0089302985 0.026790895 -0.0089302985 -0.0089302985 -0.026790895 0.026790895 -0.017860597

conv2d_9/Conv2D f4 [32, 3, 3, 3]
000000 7c 12 87 3d d6 1f b0 be c5 da 0e bf 0b b0 3e be
       0.065953225 -0.3439929 -0.55802566 -0.18621843
000010 6d f2 90 be 4e d2 0a bf c6 20 7c be b1 9f ac be
       -0.28309956 -0.5422715 -0.24621877 -0.33715585
000020 f1 21 d4 be 94 15 b5 bd 49 f1 cf be 47 51 10 bf
       -0.41432145 -0.08842006 -0.40613773 -0.5637402
000030 fc 0c 56 be 19 9c ad be 1c 3b b5 be 83 fb 8c be
       -0.2090339 -0.33908156 -0.3539666 -0.27535638
000040 7b 6e 89 be bb 1b fb be b5 5d 24 be 45 72 80 be
       -0.26842102 -0.49044594 -0.16051371 -0.2508718
000050 b9 de b1 be b3 e1 e8 3c 77 9f 9d be b0 7d f7 be
       -0.34740236 0.028427934 -0.30785725 -0.4833808
000060 27 48 2b bd 43 61 0c be 7f a0 db be 44 57 99 bc
       -0.041816857 -0.13708977 -0.42895886 -0.01871837
000070 cf c4 4c be 01 94 b4 bc 0f 20 58 bd dd b4 34 be
       -0.19996952 -0.02204323 -0.05276495 -0.17647119
000080 b9 dc 98 3d 82 dd 81 3d 40 2d c1 3c 3e 72 40 3e
       0.074639745 0.063410774 0.023581147 0.1879358
000090 fe dc 09 3e 89 cd 92 be 0e 2c c9 3d dd 94 58 3e
       0.13463208 -0.28672436 0.09822856 0.21150537
0000a0 f5 33 a8 be 7b ca e4 bd 68 69 1e 3e 27 83 b4 be
       -0.3285214 -0.111714326 0.15469897 -0.3525631
0000b0 7c 4d ac bb 48 b4 50 3e 26 cb 8e be 83 bf 98 3c
       -0.0052582603 0.20381272 -0.27889365 0.018646007
0000c0 37 a2 86 3e f1 da bf bd fd ea 05 3e 09 8a 8f 3d
       0.26295635 -0.09367932 0.13077922 0.0700875
0000d0 de 21 d0 be c6 a4 28 be 77 9a 15 be 78 af dc bc
       -0.4065084 -0.16469106 -0.14609705 -0.026939139
0000e0 22 ec af 3c 68 ef 02 be ae f0 0f 3e 19 07 43 3d
       0.021474902 -0.12786639 0.14056656 0.04761419
0000f0 f8 82 4d be fe 24 73 bd c6 49 d7 3d 8b c3 84 ba
       -0.20069492 -0.05936145 0.10512118 -0.0010129077
000100 2b 08 18 bd 05 8e 67 3e ff 53 6f 3d 3d 00 24 3e
       -0.037117165 0.2261277 0.058429714 0.16015716
000110 48 a0 64 3e ce 9a f1 bd 9e 15 24 be cc 9b ed 3a
       0.22326767 -0.11797105 -0.16023871 0.0018128096
000120 e0 5e 53 bd 8f 6e 3f 3c 54 87 05 3e 3f db f3 bd
       -0.05160415 0.011684074 0.13039905 -0.11907052
000130 70 af 92 3c b6 70 5f 3e 88 18 36 be ef 26 d8 3d
       0.01790592 0.2182034 -0.17782795 0.10554301
000140 b0 81 37 3e bc 4d 27 bc 35 f6 42 bd d9 d7 16 bd
       0.17920566 -0.010211404 -0.047598083 -0.036826942
000150 29 1b 8e bd 82 72 8a 3b 8a 8b 7e bc f5 15 f2 bd
       -0.06938774 0.004225076 -0.015536198 -0.11820594
000160 72 fc 33 3d f1 a2 84 bd f6 98 36 bd b6 45 46 be
       0.043941922 -0.06476391 -0.04457947 -0.1936253
000170 6d c1 00 be c9 bd 2c 3c c4 a6 9a 3d b4 cb 43 bb
       -0.12573786 0.010543295 0.07551339 -0.0029876055
000180 9a ce b8 3c cd 00 01 3c c4 d2 f0 bd a7 32 ba bc
       0.022559453 0.007873726 -0.1175895 -0.022729231
000190 b5 61 14 bc e6 23 c0 bc 86 f2 08 be db 1d 94 3d
       -0.009056498 -0.023454618 -0.13373765 0.07232257
0001a0 9b 2a 2d be 82 f1 44 3d f8 5f 42 3d 4d 59 26 bd
       -0.16910784 0.048081882 0.047454804 -0.040612508
0001b0 8a 8d 7b 3e 66 d1 0c 3c bc 10 1c be 29 15 3b 3e
       0.24565712 0.008594846 -0.15240759 0.1826979
0001c0 c1 e9 ad 3d f0 ef 39 be c0 d8 75 3e 75 12 cb bd
       0.08491851 -0.18157935 0.24008465 -0.0991563
0001d0 0d 4d 22 be 18 13 79 3e 33 e6 2b bd be 6e a3 bd
       -0.15849705 0.2432369 -0.041967582 -0.07980107
0001e0 0c 1d 2d 3e df 38 c9 3d 70 69 31 be 7f 04 c7 3d
       0.16905612 0.098253004 -0.17325377 0.097176544
0001f0 22 a6 b3 3d 78 9c 1f be 85 ef 83 3e 90 55 b3 3d
       0.08771922 -0.15587032 0.25768676 0.08756554
000200 ba a1 5e be 2f bd 21 3e e2 79 49 3d f1 d1 33 be
       -0.21741381 0.15794824 0.049188502 -0.17560555
000210 7e 81 56 3d e2 76 3a bd 15 5a 18 3d d6 12 ea 3d
       0.052369587 -0.04552353 0.037195284 0.11429374
000220 66 82 89 3e 8a 53 1f 3d 84 d3 20 be 37 44 da bd
       0.268573 0.03889803 -0.15705687 -0.10657542
000230 33 57 e6 3b be f2 71 be be 6f d8 be 83 25 82 be
       0.007029438 -0.23627755 -0.42272753 -0.25419244
000240 3b a8 0f 3e 1c a8 28 3e c1 93 31 3e cd 87 1e be
       0.14029019 0.16470379 0.1734152 -0.15481491
000250 aa 83 f0 bc 9e a4 87 be 3a 20 97 be 5f 10 77 be
       -0.029359657 -0.2649278 -0.29516774 -0.24127339
000260 ce ca cd be 8b 16 54 3e 4d be fa 3e 7e 84 aa 3e
       -0.4019379 0.20711724 0.48973313 0.3330421
000270 d3 d2 1a bd 64 f2 48 3e b0 bc eb 3d 4e fa 74 be
       -0.037798714 0.19623715 0.11510599 -0.23923609
000280 77 c1 9e bd 71 d6 86 bd 7c 05 7e 3e 32 91 16 be
       -0.07751744 -0.0658387 0.2480678 -0.14703825
000290 43 56 8f bd fb c7 61 3e 98 a0 54 bd 03 af f4 bd
       -0.06998875 0.22048943 -0.051910967 -0.11947443
0002a0 3d 29 0a 3e 11 f7 1d 3c 98 41 eb bd 1d 3d 63 3e
       0.13492294 0.009641425 -0.114871204 0.22191282
0002b0 0b 17 d6 bd ec e0 d9 bd e9 68 90 3d 01 84 88 bc
       -0.10453614 -0.106386036 0.0705126 -0.016664507
0002c0 55 16 46 be a0 47 63 3e 01 27 f5 bd 42 96 4e be
       -0.19344456 0.22195292 -0.1197033 -0.20174506
0002d0 24 78 ee 3d 74 f6 7d 3d 8a a6 4c be 31 d2 29 3e
       0.11644009 0.062002614 -0.19985405 0.16584088
0002e0 f5 d0 88 bc ab 51 f9 bd 85 42 fa 3d f3 11 e5 bd
       -0.016701201 -0.1217378 0.12219719 -0.11185064
0002f0 33 14 bc bc 39 c3 f4 bd 5e 24 92 be 3c 93 7a be
       -0.02295885 -0.11951298 -0.2854337 -0.24470228
000300 60 06 07 be b9 08 02 be 9c 02 2c 3d 2e 0e a9 3e
       -0.13186026 -0.1269864 0.041994676 0.3301863
000310 bd 3c 6c 3e f5 76 45 3e 76 6f 59 be 09 c6 c7 be
       0.23070045 0.1928366 -0.21233925 -0.39018276
000320 76 90 83 be 65 ac 05 bc 79 ef e0 bd bf 12 de bd
       -0.25696152 -0.008158778 -0.10983176 -0.10843419
000330 e3 7b c0 3e fb cf 9d 3e cf b3 80 3e 0d d9 35 be
       0.37594518 0.3082274 0.25137183 -0.1775858
000340 7c 4a 0e be 70 1a 73 bd 07 fa ab bd f5 c6 a0 3d
       -0.13895601 -0.059351385 -0.08397298 0.07850448
000350 b9 3d 8e bd 2b f8 0b 3e 76 5c 7f 3e 60 aa 6d 3e
       -0.069453664 0.13668887 0.24937615 0.23209524
000360 a4 bd 3b 3e 85 7f 45 3e 24 98 45 3e 6d 3b dc bd
       0.18334061 0.19286926 0.19296318 -0.10753522
000370 ec f6 90 be dc 04 85 be d0 d3 2b be 46 6b 55 be
       -0.28313386 -0.2598027 -0.16780019 -0.20841703
000380 5a bb 50 be 30 77 a6 3e e4 e4 ac 3e 94 6c a8 3e
       -0.20383969 0.32512808 0.3376838 0.3289534
000390 e8 52 15 be 33 53 f1 3c 6b 3a 01 be 48 2c 96 be
       -0.14582407 0.029458618 -0.12619941 -0.2933066
0003a0 93 36 9a be f1 c4 81 be 8a 5a 17 3d 9b 8d 82 3e
       -0.30119762 -0.25345567 0.03695158 0.2549866
0003b0 de 46 9a 3d e8 61 4a 3e 51 b0 5b 3d d3 62 32 3e
       0.07533048 0.19763911 0.053634945 0.17420511
0003c0 63 f7 6a 3d 19 9b c5 bd 1d bd 0d bd bd b6 93 bd
       0.057364833 -0.09648723 -0.03460418 -0.07212589
0003d0 4b f8 5f 3e d7 01 4c 3d e8 9a 13 bd 24 c8 31 3e
       0.2187206 0.049806442 -0.036036402 0.17361504
0003e0 a4 8c 5b 3e 40 bc 9e be 7d c3 04 be 63 71 9c bc
       0.21440369 -0.31002998 -0.12965198 -0.019097036
0003f0 57 ac 2d 3e 00 e5 1b 3e c2 f8 3a 3d f1 94 3c 3e
       0.16960274 0.15224075 0.04564739 0.18416192

conv2d_10/Conv2D i1 [32, 3, 3, 32]
000000 4c 34 02 f7 e2 ab 1e d7 c1 cf f1 fc d7 a5 d1 25
       76 52 2 -9 -30 -85 30 -41 -63 -49 -15 -4 -41 -91 -47 37
000010 91 cb f4 e3 00 aa de bf cb 04 fc ff f4 c9 f6 ab
       -111 -53 -12 -29 0 -86 -34 -65 -53 4 -4 -1 -12 -55 -10 -85
000020 6e 16 f8 ea b7 d3 fb db b2 e1 df f8 e8 a6 a5 29
       110 22 -8 -22 -73 -45 -5 -37 -78 -31 -33 -8 -24 -90 -91 41
000030 b9 c4 fc af f6 8d d3 fc d0 10 f2 01 04 e1 dd f1
       -71 -60 -4 -81 -10 -115 -45 -4 -48 16 -14 1 4 -31 -35 -15
000040 74 37 f5 fb c9 0f 04 ec 02 df e2 f1 e3 e1 ea 27
       116 55 -11 -5 -55 15 4 -20 2 -33 -30 -15 -29 -31 -22 39
000050 cd cf 05 d9 e0 c3 c9 1f c7 23 fb f9 0c 0a cd 09
       -51 -49 5 -39 -32 -61 -55 31 -57 35 -5 -7 12 10 -51 9
000060 68 06 f2 08 ab c7 ea 01 c4 e3 d2 f1 d9 d7 d7 12
       104 6 -14 8 -85 -57 -22 1 -60 -29 -46 -15 -39 -41 -41 18
000070 b0 a8 06 e3 ec 94 d1 df be fb f2 08 09 ed e6 c8
       -80 -88 6 -29 -20 -108 -47 -33 -66 -5 -14 8 9 -19 -26 -56
000080 73 10 f8 1c c0 02 df 20 e3 07 0a e8 da c5 02 06
       115 16 -8 28 -64 2 -33 32 -29 7 10 -24 -38 -59 2 6
000090 da ef 03 08 e0 d1 13 03 ec 22 ff f7 fa 08 ef 06
       -38 -17 3 8 -32 -47 19 3 -20 34 -1 -9 -6 8 -17 6
0000a0 71 42 1d 02 e6 0b f7 17 2e 2b 27 cb d3 ee 10 19
       113 66 29 2 -26 11 -9 23 46 43 39 -53 -45 -18 16 25
0000b0 fa 3d 0e 04 f1 fb 0e 43 f5 1e 09 06 ec fc 0d 1f
       -6 61 14 4 -15 -5 14 67 -11 30 9 6 -20 -4 13 31
0000c0 5a 16 fc 08 9f bd be ed cc f4 b8 ef d6 0c cb ef
       90 22 -4 8 -97 -67 -66 -19 -52 -12 -72 -17 -42 12 -53 -17
0000d0 99 b8 ef 09 e2 ae ca a8 b5 e4 fd e9 15 0b dc 81
       -103 -72 -17 9 -30 -82 -54 -88 -75 -28 -3 -23 21 11 -36 -127
0000e0 50 17 e4 05 d0 ec c9 1a e9 d3 11 f6 11 fc 25 06
       80 23 -28 5 -48 -20 -55 26 -23 -45 17 -10 17 -4 37 6
0000f0 cd 10 0b 1f 0e 05 c8 d3 f3 e9 ee f2 e9 ee 15 c1
       -51 16 11 31 14 5 -56 -45 -13 -23 -18 -14 -23 -18 21 -63
