graduation project UI/assets/color.tflite (tflite, 822144 bytes, 8 tensors)

sequential_1/conv2d_3/BiasAdd/ReadVariableOp/resource f4 [32]
00000000: d7da 0cbe 6250 10bd edfa dabd 0281 9dbb
00000010: 3783 b83c 566b a7bb 8cb7 6e3d 1619 153e
00000020: 5784 45be 8897 87be c098 fe3c 5566 ecbc
00000030: 9a35 123e 7c68 263c cbe8 093c cd85 babc
00000040: e3a2 9cbb 373a 3a3e 2054 c5bc ee46 cebc
00000050: 7b0a 05be ecb6 e43b eb7f a53d c9aa a13d
00000060: f545 b63b 5b3c 82bd 4f1c 463d 25fc b23c
00000070: 3c59 d8bc 24c5 bebd 4367 9c3c ae23 643c
-0.13755356 -0.03523291 -0.106923915 -0.0048066387 0.022523506 -0.005109231 0.058280513 0.14560351
-0.19288765 -0.26482797 0.031078696 -0.02885739 0.1427826 0.010156747 0.008417319 -0.02276888
-0.00478016 0.1818627 -0.024087965 -0.025180306 -0.12992279 0.006979814 0.08081039 0.07893903
0.0055625387 -0.06359168 0.04836684 0.021848748 -0.026409738 -0.09314945 0.019092208 0.013924522

sequential_1/conv2d_4/BiasAdd/ReadVariableOp/resource f4 [32]
00000000: 9f75 bdbd 89b9 423c 0b62 39be 1f3e c23c
00000010: 59ed f2bc 36f8 32bd d8de f9bd 139b 4fbe
00000020: b086 8b3d 60a5 463b 64db 86be 94ef 8cbd
00000030: f0aa 273e 8726 d33d b51d c3ba 887a 2e3e
00000040: c1ee e7bc 5ad5 91bd bdeb ff3d 63a0 2fbe
00000050: 5c3a af3d 0a85 3ebe c05b 33be a9fb ac3d
00000060: 3407 0e3e 744d 273e 73fb c63b 65c7 123c
00000070: 8b16 0b3e b4bc 0fbe 744a 0dbd 2769 383e
-0.0925095 0.011885055 -0.18103807 0.023711262 -0.029654192 -0.043693744 -0.12200707 -0.20274
0.06812799 0.0030310974 -0.26339257 -0.068816334 0.16373801 0.10310083 -0.0014886173 0.1703893
-0.028312089 -0.07120772 0.124961354 -0.17151026 0.08556053 -0.18605438 -0.17515469 0.08446438
0.13869935 0.1633814 0.0060724556 0.008958672 0.13582818 -0.14036828 -0.034494832 0.18008862

sequential_1/dense_3/BiasAdd/ReadVariableOp/resource f4 [128]
00000000: 52ba 8fbd 97f6 d7bd 1fc8 c3bb 263f 65bc
00000010: 990e 263e 1840 a03d e7c4 c3bb 3d35 353d
00000020: 0fb2 ccbd 0173 0cbd 1b69 04bd 3f1e 9fbd
00000030: 13c5 c3bb 8de6 02bd 754c e73c 1317 a3ba
00000040: 5347 c3bb 5f1d 683b ed66 f8bb c592 13be
00000050: 846b f83d da0d b9bb f8c7 c3bb 01b4 c3bb
00000060: 3cb5 c7bb 61d9 b4bb 120d c5bd 18c1 9b3d
00000070: 3ab3 e0bb 1e43 d2bc dec7 c3bb 8e09 b5bd
00000080: d477 a9bb 6a9b 7e3e a024 6b3d 5a92 99bb
00000090: d603 c3bb f7c6 a8bb 2957 4ebc e8dc 513e
000000a0: 9216 f63d f4fe bfbb 36c5 c3bb bac2 4a3d
000000b0: bcda b6bc 00c8 c3bb 3377 27be 046b a7bc
000000c0: b346 c7bb 34a1 013e 21df 87bb cbf9 47bd
000000d0: d261 c6bb d903 0a3e b4af c3bb 9a1d c2bb
000000e0: 0a18 ebbc 3509 063e 2ce6 d93d c1c9 d13c
000000f0: 79c3 ebbc d305 21bd 6fe2 063d 01c5 c3bb
00000100: 451b 803e 4b9e 213e 90d8 80bd 00f7 93bb
00000110: 9130 f4bb 12b6 c3bb 25c3 c3bb b9c4 c3bb
00000120: 7387 203e 7c1e 73bd b53c debd 690f 29bd
00000130: 90c1 c3bb 0dc8 c3bb 36a3 4ebd eb3b 7e3c
00000140: 988e 033e d3c1 c3bb ccb0 c3bb 0752 d5bc
00000150: fc0e 8e3e 0a05 99bb 8cc5 c3bb 72f0 01be
00000160: 2bbf f7bd bcc7 c3bb d25c d2bd 01c8 c3bb
00000170: 81e0 0bbc 7495 27be f5e9 0c3e 9cc6 c3bb
00000180: c2e0 b4bb 3fae fabb ecad c3bb 76ae c3bb
00000190: d2cd d5bd 48c7 c3bb 8c0b 273d 4fa8 5f3e
000001a0: b1b6 9fbe 5c48 0bbe 9bc7 c3bb db94 6f3e
000001b0: 581b 3ebd 8eac 43bd 9b5b 013d d860 a2bd
000001c0: 8ad8 563d e13e d93d 621a 9ebd 7639 19bd
000001d0: 191a ca3d bd73 d73d 6ebf c3bb c1c3 c3bb
000001e0: 71f2 c3bd 95b5 00be 075b d3bc 1dca 82bc
000001f0: 7690 b7bd 6e9a bbbc 2465 de3d 0fc7 c3bb
-0.0701796 -0.1054508 -0.005974784 -0.013992107 0.16216506 0.07824725 -0.0059744003 0.044240225
-0.099948995 -0.034289364 -0.0323268 -0.07769441 -0.005974421 -0.03195815 0.0282347 -0.001244279
-0.0059594302 0.0035417897 -0.007580629 -0.14411457 0.12129882 -0.005647403 -0.005974766 -0.005972386
-0.006094603 -0.0055190776 -0.096216336 0.07605189 -0.006857303 -0.02566677 -0.0059747538 -0.08839713
-0.0051717553 0.24863973 0.057407975 -0.004686636 -0.005951385 -0.0051506716 -0.012594023 0.20494425
0.12016024 -0.00585925 -0.005974437 0.049502112 -0.022321098 -0.0059747696 -0.16354065 -0.020436771
-0.006081426 0.1265915 -0.004146472 -0.048822206 -0.0060541416 0.1347803 -0.005971873 -0.005923939
-0.028697986 0.1308945 0.10639605 0.0256089 -0.028779732 -0.039312195 0.032930788 -0.0059744124
0.25020805 0.1578304 -0.06291306 -0.0045155287 -0.0074520786 -0.005972632 -0.005974191 -0.005974379
0.1567667 -0.059355244 -0.10851423 -0.041274462 -0.005974002 -0.0059747756 -0.05044862 0.015517215
0.12847364 -0.0059740334 -0.0059720036 -0.02604009 0.27745807 -0.00466979 -0.005974477 -0.12689379
-0.12097009 -0.005974738 -0.1027161 -0.00597477 -0.008537413 -0.16365606 0.13761123 -0.005974604
-0.0055199573 -0.0076501663 -0.005971661 -0.005971725 -0.10439648 -0.005974684 0.040782496 0.21841548
-0.3119407 -0.13601822 -0.0059747226 0.23396628 -0.046412796 -0.047771983 0.031581502 -0.07928628
0.0524526 0.10607696 -0.07719876 -0.037408315 0.09868259 0.10520122 -0.005973748 -0.0059742634
-0.095677264 -0.12569268 -0.025800241 -0.015965516 -0.089631006 -0.022900786 0.10859135 -0.0059746574

sequential_1/dense_4/BiasAdd/ReadVariableOp/resource f4 [13]
00000000: 2d02 2bbe 75a0 9abd c81b 353e 1c18 f0bd
00000010: 9117 9f3e 89d6 fdbc d267 c4bc f7cf 853d
00000020: 5d96 57bc a61c 253c 42ee 093d 5cf0 12bd
00000030: 7310 aebd
-0.16700049 -0.07550136 0.17686379 -0.117233485 0.31072667 -0.030986087 -0.023975287 0.06533807
-0.013158408 0.010077631 0.033674486 -0.035873756 -0.08499231

sequential_1/dense_3/MatMul i1 [128, 6272] scale=0.0061691855 zero_point=0
00000000: de0c 090e 06e9 08fb 05e5 05fe 1033 0007
00000010: 010b 18ff 0b25 0a11 e3fc 1b03 2410 f9cb
00000020: e90b f613 02f2 1efb ffdf 0b03 0411 080d
00000030: 040f 0ffb eb09 1702 dffc 160a 1902 f4cc
00000040: ef0e db17 f5f5 16fc 0de8 06f7 1ef6 ff11
00000050: fc05 0bf0 07fb 0ff6 eef4 0800 f701 f9e9
00000060: f201 f02b eef6 f7f5 08f1 17eb 1e00 fa1e
00000070: fe04 05f5 0c01 0201 e5fd 0b0f 0bfd e9f0
00000080: f415 0121 f1d7 f5de 0dee 17f1 0e1b 091b
00000090: 0516 1006 1af5 0d0c e70c 0e0a 1ffd f6d9
000000a0: 0d25 13fb efd2 08ec 1adc 05e2 1219 1320
000000b0: 011a 1605 44f5 1e0b fc12 fd00 1205 09c5
000000c0: 0120 fe06 f6da 16fb feeb 01d7 1bfc 1d25
000000d0: fc2d 0c0a 12ee 0d26 0b1b 05f5 0d0a 0ccd
000000e0: 0544 1507 e6d7 19f6 d8e8 09dd 13fe 2234
000000f0: ff28 0e17 10d9 102a f224 0df9 05fc 0bee
-0.2097523 0.07403023 0.05552267 0.0863686 0.037015114 -0.14189127 0.049353484 -0.030845927
0.030845927 -0.16656801 0.030845927 -0.012338371 0.09870697 0.31462845 0.0 0.0431843
0.0061691855 0.06786104 0.14806046 -0.0061691855 0.06786104 0.22825986 0.061691854 0.10487615
-0.17890638 -0.024676742 0.16656801 0.018507557 0.22209068 0.09870697 -0.0431843 -0.32696682
-0.14189127 0.06786104 -0.061691854 0.11721452 0.012338371 -0.0863686 0.18507557 -0.030845927
-0.0061691855 -0.20358312 0.06786104 0.018507557 0.024676742 0.10487615 0.049353484 0.08019941
0.024676742 0.09253778 0.09253778 -0.030845927 -0.1295529 0.05552267 0.14189127 0.012338371
-0.20358312 -0.024676742 0.13572209 0.061691854 0.15422964 0.012338371 -0.07403023 -0.32079765
-0.10487615 0.0863686 -0.22825986 0.14189127 -0.06786104 -0.06786104 0.13572209 -0.024676742
0.08019941 -0.14806046 0.037015114 -0.05552267 0.18507557 -0.061691854 -0.0061691855 0.10487615
-0.024676742 0.030845927 0.06786104 -0.09870697 0.0431843 -0.030845927 0.09253778 -0.061691854
-0.11104534 -0.07403023 0.049353484 0.0 -0.05552267 0.0061691855 -0.0431843 -0.14189127
-0.0863686 0.0061691855 -0.09870697 0.26527497 -0.11104534 -0.061691854 -0.05552267 -0.06786104
0.049353484 -0.09253778 0.14189127 -0.1295529 0.18507557 0.0 -0.037015114 0.18507557
-0.012338371 0.024676742 0.030845927 -0.06786104 0.07403023 0.0061691855 0.012338371 0.0061691855
-0.16656801 -0.018507557 0.06786104 0.09253778 0.06786104 -0.018507557 -0.14189127 -0.09870697
-0.07403023 0.1295529 0.0061691855 0.20358312 -0.09253778 -0.2529366 -0.06786104 -0.2097523
0.08019941 -0.11104534 0.14189127 -0.09253778 0.0863686 0.16656801 0.05552267 0.16656801
0.030845927 0.13572209 0.09870697 0.037015114 0.16039883 -0.06786104 0.08019941 0.07403023
-0.15422964 0.07403023 0.0863686 0.061691854 0.19124475 -0.018507557 -0.061691854 -0.24059823
0.08019941 0.22825986 0.11721452 -0.030845927 -0.10487615 -0.28378254 0.049353484 -0.12338371
0.16039883 -0.22209068 0.030845927 -0.18507557 0.11104534 0.15422964 0.11721452 0.19741394
0.0061691855 0.16039883 0.13572209 0.030845927 0.4195046 -0.06786104 0.18507557 0.06786104
-0.024676742 0.11104534 -0.018507557 0.0 0.11104534 0.030845927 0.05552267 -0.36398193
0.0061691855 0.19741394 -0.012338371 0.037015114 -0.061691854 -0.23442905 0.13572209 -0.030845927
-0.012338371 -0.1295529 0.0061691855 -0.2529366 0.16656801 -0.024676742 0.17890638 0.22825986
-0.024676742 0.27761334 0.07403023 0.061691854 0.11104534 -0.11104534 0.08019941 0.23442905
0.06786104 0.16656801 0.030845927 -0.06786104 0.08019941 0.061691854 0.07403023 -0.31462845
0.030845927 0.4195046 0.1295529 0.0431843 -0.16039883 -0.2529366 0.15422964 -0.061691854
-0.24676742 -0.14806046 0.05552267 -0.21592149 0.11721452 -0.012338371 0.2097523 0.32079765
-0.0061691855 0.24676742 0.0863686 0.14189127 0.09870697 -0.24059823 0.09870697 0.2591058
-0.0863686 0.22209068 0.08019941 -0.0431843 0.030845927 -0.024676742 0.06786104 -0.11104534

sequential_1/dense_4/MatMul i1 [13, 128] scale=0.005389175 zero_point=0
00000000: 0eea fb14 01c1 f0cc 27e3 fb06 dce0 3d25
00000010: f917 0b27 190d 08e5 0607 1f10 ff0b 0417
00000020: f4b4 fa0e 0004 05fd bff8 e218 d3e5 1907
00000030: ef0f db13 f7c3 f4e5 1e18 0e0b ba1e 07f1
00000040: d6d9 261c 0be9 06f2 1bf8 2edd fee7 1a1a
00000050: f8f4 fdfb 010a e223 1dfe 0ddf e812 08f4
00000060: edde def7 28f9 c907 1802 04fa 02e2 be1b
00000070: eb16 0c23 cec0 f201 4321 2214 0aea 1600
00000080: 0937 dd08 1fc4 03ec ddec 2311 064e 1126
00000090: 1cf3 16fe 1500 dedf 19f7 2e16 0ea5 0716
000000a0: 101c 07f3 0df1 17af 2a10 0bf4 1be3 0ce5
000000b0: 1803 fd01 fcf7 efe0 0d25 f71a 28f2 c506
000000c0: f8ef c4de 11f1 1ded d1f0 18cd 1dff fec4
000000d0: d402 dfe0 1714 0f23 0ef1 a90d e125 c40f
000000e0: 253b 1bf6 0be7 e4e0 1625 df2f 21df 03dc
000000f0: f487 001e 0bfd f0f6 0d33 eedb b7fa eeea
0.075448446 -0.11856185 -0.026945874 0.1077835 0.005389175 -0.339518 -0.0862268 -0.2802371
0.21017782 -0.15628608 -0.026945874 0.03233505 -0.1940103 -0.1724536 0.32873967 0.19939947
-0.037724223 0.123951025 0.059280924 0.21017782 0.13472937 0.07005928 0.0431134 -0.14550772
0.03233505 0.037724223 0.16706443 0.0862268 -0.005389175 0.059280924 0.0215567 0.123951025
-0.0646701 -0.40957728 -0.03233505 0.075448446 0.0 0.0215567 0.026945874 -0.016167525
-0.35029638 -0.0431134 -0.16167524 0.1293402 -0.24251287 -0.14550772 0.13472937 0.037724223
-0.091615975 0.08083762 -0.19939947 0.10239432 -0.048502576 -0.32873967 -0.0646701 -0.14550772
0.16167524 0.1293402 0.075448446 0.059280924 -0.37724224 0.16167524 0.037724223 -0.08083762
-0.22634535 -0.21017782 0.20478864 0.15089689 0.059280924 -0.123951025 0.03233505 -0.075448446
0.14550772 -0.0431134 0.24790205 -0.18862112 -0.01077835 -0.13472937 0.14011855 0.14011855
-0.0431134 -0.0646701 -0.016167525 -0.026945874 0.005389175 0.05389175 -0.16167524 0.18862112
0.15628608 -0.01077835 0.07005928 -0.17784277 -0.1293402 0.09700515 0.0431134 -0.0646701
-0.10239432 -0.18323195 -0.18323195 -0.048502576 0.215567 -0.037724223 -0.29640463 0.037724223
0.1293402 0.01077835 0.0215567 -0.03233505 0.01077835 -0.16167524 -0.35568553 0.14550772
-0.11317267 0.11856185 0.0646701 0.18862112 -0.26945874 -0.3449072 -0.075448446 0.005389175
0.36107472 0.17784277 0.18323195 0.1077835 0.05389175 -0.11856185 0.11856185 0.0
0.048502576 0.29640463 -0.18862112 0.0431134 0.16706443 -0.3233505 0.016167525 -0.1077835
-0.18862112 -0.1077835 0.18862112 0.091615975 0.03233505 0.42035565 0.091615975 0.20478864
0.15089689 -0.07005928 0.11856185 -0.01077835 0.11317267 0.0 -0.18323195 -0.17784277
0.13472937 -0.048502576 0.24790205 0.11856185 0.075448446 -0.49041492 0.037724223 0.11856185
0.0862268 0.15089689 0.037724223 -0.07005928 0.07005928 -0.08083762 0.123951025 -0.43652317
0.22634535 0.0862268 0.059280924 -0.0646701 0.14550772 -0.15628608 0.0646701 -0.14550772
0.1293402 0.016167525 -0.016167525 0.005389175 -0.0215567 -0.048502576 -0.091615975 -0.1724536
0.07005928 0.19939947 -0.048502576 0.14011855 0.215567 -0.075448446 -0.3179613 0.03233505
-0.0431134 -0.091615975 -0.3233505 -0.18323195 0.091615975 -0.08083762 0.15628608 -0.10239432
-0.25329122 -0.0862268 0.1293402 -0.27484792 0.15628608 -0.005389175 -0.01077835 -0.3233505
-0.2371237 0.01077835 -0.17784277 -0.1724536 0.123951025 0.1077835 0.08083762 0.18862112
0.075448446 -0.08083762 -0.4688582 0.07005928 -0.16706443 0.19939947 -0.3233505 0.08083762
0.19939947 0.3179613 0.14550772 -0.05389175 0.059280924 -0.13472937 -0.15089689 -0.1724536
0.11856185 0.19939947 -0.17784277 0.25329122 0.17784277 -0.17784277 0.016167525 -0.1940103
-0.0646701 -0.6520902 0.0 0.16167524 0.059280924 -0.016167525 -0.0862268 -0.05389175
0.07005928 0.27484792 -0.09700515 -0.19939947 -0.39340976 -0.03233505 -0.09700515 -0.11856185

sequential_1/conv2d_3/Conv2D f4 [32, 3, 3, 3]
00000000: 3c77 0e3e 87bd a9bd a9ca c5bd c274 b3bd
00000010: a80e e7bd d75f 8a3d 2e5b 84bd f071 7ebe
00000020: e189 953d 4572 9a3d ba8d 4c3d c2a8 90bd
00000030: 7126 033e 9701 30be 9f51 1d3e ce63 f3bd
00000040: 672c 1dbd 16f5 873b ab83 d73c 074e d63d
00000050: 038e e63d 3654 ea3d 4a9b 4a3d 76db 013e
00000060: a1c7 88bb f077 89bd 189e cb3d ac40 153b
00000070: 7296 623d 90d7 d5bd 46bf c4bc 5ba5 9d3d
00000080: 7903 f3bd 31d8 623d ca66 21be 22be c4bd
00000090: ab3b d9bd ab02 88bd 1f47 27be 77fb a13d
000000a0: 0fe1 e5bd f921 413d dafa c03d d720 3cbd
000000b0: 6662 7dbd a2f5 b8bd 59c7 f7bd 6460 3cbd
000000c0: 8384 15be 1bb0 023e 524a de3c c587 c7bd
000000d0: 9a78 b03d 5f3b 273d 2aac 2b3e 5c5c 113d
000000e0: 56cc 53bd f513 5b3e f088 eb3c 0e34 27be
000000f0: d29f 003e 46ac 503d bdd1 ae3d 15a8 363e
00000100: a555 05be 9936 bbbc ae74 4c3e b21e a7bd
00000110: e8b4 19be 3c25 503e 8a9e 26be 492a c23c
00000120: c4ac 2d3e 3d89 793c 22a7 45be 84eb 033e
00000130: 256e 15be 0fff cdbd 50db b13d 3746 fabd
00000140: 3adf 0ebb 3125 17be e460 8abd e73e 17be
00000150: 898e 31be 55f9 28be 4348 503b ff60 343d
00000160: 7a04 52bd 59b8 193e 99fa 46be ec86 67be
00000170: 6985 73be 330d c03c 8bb7 b0bd 6421 a3bd
00000180: f9a5 c73d 5320 143e c991 803e 7d0f 9e3d
00000190: f1fa eb3d d9f9 f9bd 5b10 323e 8bac d43b
000001a0: 3294 8abd e9c8 e43d 5d49 973e 8116 693e
000001b0: 8cdd 963d 9254 53be 403b 1fbe 9198 3ebe
000001c0: ca6c 75be ff63 50be 5359 36be 9d1f 7bbe
000001d0: c760 1d3a 8efb 2f3e 480b 373e c352 3fbd
000001e0: c08c e3bd f755 a83d f584 1e3e 283a 313d
000001f0: b73d 84bc 0133 ae3d 3fef 5d3c bd3d 023e
00000200: 8af6 ac3c 0149 b53d de84 523e 5b68 d73d
00000210: 7359 2f3b 5963 e73d 7c57 afbd a271 593b
00000220: 10c7 5f3c 661b 99bd 60d1 08bd 3443 6cbe
00000230: dbf9 61be ea98 97bc 134f 98be 5d92 90be
00000240: 892f 0d3c 68ae 453e aee4 793e d940 8c3d
00000250: 88d9 a63d 0aa3 873d 72d0 043e c6a3 c4bd
00000260: 2ce8 04bd 23e3 45bd 01f2 603e 24f0 e03d
00000270: be91 c8bd 3fed c13d 9ca1 003e e21b 91bd
00000280: 2a32 323d 4505 213d 8a23 003e eebf 4f3e
00000290: eb73 e6bd ef4e 353e 2dab 063d a674 04be
000002a0: f606 143e 1c24 643e 017b 663d 651a 903d
000002b0: 93f6 e93d 5ec6 083d 7820 c83c 33aa 473c
000002c0: d6a0 2dbe c264 aa3d 62b9 e5bd 5f19 13be
000002d0: 32ce 61bd 83b8 c6bc cd35 68be fe59 e13d
000002e0: 8931 3cbe 5719 67be 75b7 d3bd bce1 75bd
000002f0: 39b5 4abd 4b6f 80bd eacc c73d 3456 a63d
00000300: 8fd2 003d 497e b23d 471e 703d 773d 6dbd
00000310: ba14 04bd 4cf4 cd3d 1b3e 31be ebb3 a4bb
00000320: ef10 00be 86e9 453d a031 5b3d ba68 02bd
00000330: f46b aabd acb8 693a c086 07be 58ce a93d
00000340: d2b2 333e eea7 c8bd 083a 10be 5826 db3d
00000350: 61ee 023d 0f93 25be 54ae 0d3e 5c95 39be
00000360: c50a 803d 08da a3bc 748d 1e3e 2ce0 fdbc
00000370: d728 173e 0550 233e 8da2 d53d 93d0 023d
00000380: c5c1 293c 0025 92bc d63e 3cbd 5cd4 703d
00000390: b1f4 913d 7ea8 fe3b 9f31 0a3e e163 e4bc
000003a0: 5ce6 663d 65ad 223e c096 c5bd ffc5 a03d
000003b0: 7ed2 023e eae6 3b3c ac0d 5c3d a089 51bd
000003c0: 4bdc d93d a5e8 3fbd 0561 92bd 546f 383c
000003d0: becb f43d 4955 133e 2dca 323e 2f48 d23d
000003e0: 7ff1 383e 4fea e1bc 7316 15be 2c37 f13d
000003f0: 0c26 0f3e b14c 8b3d ab1d 823d ae96 1e3e
0.13912672 -0.082881026 -0.09657795 -0.08762504 -0.11282092 0.06756561 -0.06462704 -0.24848151
0.07301689 0.075413264 0.04993985 -0.07063438 0.12807633 -0.17188106 0.15363167 -0.118842706
-0.038372423 0.0041490896 0.026307901 0.10464101 0.11257555 0.11441843 0.0494645 0.12681374
-0.0041741882 -0.067123294 0.09942263 0.0022774143 0.055319257 -0.10441506 -0.024016988 0.07697555
-0.11865897 0.055381957 -0.15761867 -0.096065775 -0.10607084 -0.06641134 -0.16335724 0.07909291
-0.11224567 0.04715154 0.09422846 -0.045929756 -0.06186142 -0.09031226 -0.120985694 -0.045990363
-0.1460133 0.12762491 0.027135048 -0.09742693 0.08616753 0.040828105 0.16764894 0.03548847
-0.05170854 0.21394332 0.02875182 -0.16328451 0.12560967 0.050945543 0.08536098 0.17837556
-0.13020952 -0.022853183 0.19966385 -0.081601515 -0.15010417 0.20326704 -0.16271415 0.023701804
0.16960436 0.015230474 -0.19302037 0.12882811 -0.14592798 -0.10058414 0.08684409 -0.12220424
-0.0021800534 -0.14760281 -0.06756762 -0.14770089 -0.17339529 -0.16501363 0.0031781353 0.044037815
-0.0512738 0.1501173 -0.19431533 -0.22610062 -0.2378136 0.023443794 -0.08628758 -0.07965353
0.09748454 0.14465456 0.25111225 0.07717798 0.11522473 -0.12205858 0.17389052 0.0064902953
-0.06766547 0.11171133 0.2954816 0.22762491 0.073664755 -0.2063773 -0.15549946 -0.18612887
-0.23967281 -0.20350645 -0.17807512 -0.24523778 0.00060034957 0.17185804 0.17875397 -0.046709787
-0.1111083 0.082195215 0.15480407 0.043268353 -0.01614271 0.08505822 0.01354581 0.12718864
0.021113653 0.08851815 0.20558497 0.10517951 0.0026756197 0.11298246 -0.08561608 0.0033179303
0.0136583 -0.07475929 -0.0334028 -0.23072511 -0.22067969 -0.018505532 -0.2974783 -0.28236666
0.00861729 0.19304812 0.2440364 0.06848306 0.081469595 0.06622894 0.1297014 -0.0960155
-0.03244798 -0.048312318 0.21967317 0.10983303 -0.09793423 0.09469079 0.12561649 -0.07085396
0.04350487 0.039311666 0.12513557 0.20288059 -0.11252578 0.17705892 0.03287809 -0.12935123
0.1445578 0.222794 0.05626965 0.07036284 0.114239834 0.033392303 0.024429545 0.012186575
-0.16955885 0.08319999 -0.112169996 -0.14365147 -0.055128284 -0.024257904 -0.22676773 0.11003493
-0.18378271 -0.2256826 -0.10337726 -0.06002973 -0.049489234 -0.062712274 0.09755881 0.08121911
0.031450804 0.08715493 0.058622625 -0.057919946 -0.03224633 0.100563616 -0.17308848 -0.0050263307
-0.1250646 0.04831841 0.053514123 -0.031838156 -0.08321372 0.0008915763 -0.13234997 0.0829131
0.17548683 -0.09797655 -0.14084637 0.10700673 0.031965617 -0.1616938 0.13836032 -0.18123382
0.06252054 -0.020001426 0.15483648 -0.030990683 0.14761673 0.15948494 0.10431395 0.031937193
0.01036114 -0.017839909 -0.045958363 0.05879627 0.07126749 0.0077715507 0.13495491 -0.027879657
0.05637203 0.15886457 -0.09647894 0.07850265 0.12775609 0.011468628 0.053723976 -0.05115664
0.10637721 -0.046852726 -0.07147411 0.011257011 0.11952923 0.14388002 0.17459936 0.10267674
0.18060873 -0.027577547 -0.14559345 0.11778101 0.13979357 0.06801737 0.06353315 0.15487167

sequential_1/conv2d_4/Conv2D i1 [32, 3, 3, 32]
00000000: 1205 f9e1 f147 cbfc df2f 32ee fe1d ffd4
00000010: fbf7 151e fd1a dadd 1132 b030 1245 492e
00000020: f9f9 b4e3 f935 e2ec 1a1f 2eec e60b fce3
00000030: d2e0 e830 fb15 dce4 ed3a d130 0027 1aff
00000040: dfe3 d0f1 f309 cbcf 18f6 38f9 e732 09e2
00000050: e907 1601 1907 e9f6 1525 c92f e235 fbe3
00000060: 260c d4ee f817 dbdf f114 22ee fad8 f5e5
00000070: e1a2 1f30 1af3 f9e5 dd23 c92c df30 ccf6
00000080: 06ea a6de d5e7 b8f8 08d1 48d7 e6e1 4102
00000090: 9a9a 1329 e3ef 26f8 cd0b 9156 f13b dcf0
000000a0: 0afa 81e3 b8fd cff6 e8f9 05ee e3fe 3b0b
000000b0: cad0 d9fe f604 1203 ba3e d51f 1102 fad3
000000c0: f4e0 9ae4 cbe1 e0fb f9e8 29e6 06ea 3514
000000d0: f58f 00ff 0d0b e3f3 ba1f ca28 131d 2df8
000000e0: f0de 99c0 8ba9 e10a 13e6 0c12 f2eb 3f0c
000000f0: ea95 dd1f 0405 fd08 d1ff b42a 0108 16e3
18 5 -7 -31 -15 71 -53 -4
-33 47 50 -18 -2 29 -1 -44
-5 -9 21 30 -3 26 -38 -35
17 50 -80 48 18 69 73 46
-7 -7 -76 -29 -7 53 -30 -20
26 31 46 -20 -26 11 -4 -29
-46 -32 -24 48 -5 21 -36 -28
-19 58 -47 48 0 39 26 -1
-33 -29 -48 -15 -13 9 -53 -49
24 -10 56 -7 -25 50 9 -30
-23 7 22 1 25 7 -23 -10
21 37 -55 47 -30 53 -5 -29
38 12 -44 -18 -8 23 -37 -33
-15 20 34 -18 -6 -40 -11 -27
-31 -94 31 48 26 -13 -7 -27
-35 35 -55 44 -33 48 -52 -10
6 -22 -90 -34 -43 -25 -72 -8
8 -47 72 -41 -26 -31 65 2
-102 -102 19 41 -29 -17 38 -8
-51 11 -111 86 -15 59 -36 -16
10 -6 -127 -29 -72 -3 -49 -10
-24 -7 5 -18 -29 -2 59 11
-54 -48 -39 -2 -10 4 18 3
-70 62 -43 31 17 2 -6 -45
-12 -32 -102 -28 -53 -31 -32 -5
-7 -24 41 -26 6 -22 53 20
-11 -113 0 -1 13 11 -29 -13
-70 31 -54 40 19 29 45 -8
-16 -34 -103 -64 -117 -87 -31 10
19 -26 12 18 -14 -21 63 12
-22 -107 -35 31 4 5 -3 8
-47 -1 -76 42 1 8 22 -29
