graduation project UI/assets/pattern_clothes.tflite (tflite, 823488 bytes, 8 tensors)

sequential_1/conv2d_1/BiasAdd/ReadVariableOp/resource f4 [32]
-0.034853704 0.0012067597 0.014634878 0.056179706 -0.010129979 0.10471431 0.015793458 -0.040605366
-0.016496073 -0.01086723 -0.06442707 -0.05555921 -0.010031446 -0.05080984 0.06351179 -0.005334765
-0.0022343958 0.013365351 0.013994037 -0.024591062 0.027386678 0.04018714 -0.035943776 -0.0018236708
-0.09236017 -0.06445563 -0.020931866 -0.028380327 -0.011335496 -0.0025343318 0.06997437 -0.0064168116
00000000: c2c2 0ebd 232c 9e3a 21c7 6f3c b11c 663d
00000010: 36f8 25bc 7574 d63d 4861 813c d051 26bd
00000020: c622 87bc 770c 32bc 57f2 83bd 0e92 63bd
00000030: ef5a 24bc fb1d 50bd 7812 823d 41cf aebb
00000040: f16e 12bb 58fa 5a3c 3f47 653c 3273 c9bc
00000050: 075a e03c 459b 243d c839 13bd 3d08 efba
00000060: 5427 bdbd 5001 84bd 4e79 abbc dc7d e8bc
00000070: 84b8 39bc 0817 26bb b94e 8f3d 1e44 d2bb

sequential_1/conv2d_2/BiasAdd/ReadVariableOp/resource f4 [32]
0.12003835 0.05982117 -0.06693752 -0.024062414 -0.10884002 0.013134331 0.014298107 -0.0052943886
-0.0722955 0.013406287 -0.03685778 -0.018634928 0.008644062 0.116467625 -0.08898799 -0.09919866
-0.02142527 -0.11680069 0.13568558 0.00015430646 -0.0059604915 -0.032015614 -0.016743723 -0.18133983
-0.076991156 -0.015813326 0.16600472 0.074595906 -0.046766903 -0.01736803 -0.06612315 -0.09880446
00000000: abd6 f53d 0b07 753d 8a16 89bd 8a1e c5bc
00000010: 84e7 debd 6131 573c 9b42 6a3c 8d7c adbb
00000020: aa0f 94bd 0ba6 5b3c 2ff8 16bd 47a8 98bc
00000030: d39f 0d3c 9486 ee3d 563f b6bd ab28 cbbd
00000040: 0c84 afbc 3335 efbd 29f1 0a3e 53cd 2139
00000050: 3a50 c3bb ce22 03bd 222a 89bc 26b1 39be
00000060: 8aad 9dbd f38a 81bc 24fd 293e bdc5 983d
00000070: a78e 3fbd 6647 8ebc 936b 87bd fe59 cabd

sequential_1/dense_1/BiasAdd/ReadVariableOp/resource f4 [128]
-0.012543333 -0.07222985 -0.0059412117 -0.008255189 -0.016695637 -0.0271394 -0.005728866 -0.0059418106
-0.063995235 0.15671253 0.058767237 -0.0059417053 -0.005941835 -0.0432025 0.062119905 0.13182697
-0.005941491 0.17381528 -0.03475475 0.0749715 -0.005941793 -0.05798483 -0.018577076 0.021730509
-0.0059414944 -0.0059399796 -0.0059417384 -0.0061371834 0.0640643 -0.045674283 0.12834531 -0.009189557
0.1295109 -0.0059415484 -0.0059417235 0.10205284 -0.005940621 0.1034438 -0.0028540487 0.1328541
0.094351344 -0.008832482 0.12971555 -0.006375503 -0.005941442 -0.006518842 0.15952149 -0.018164486
0.10049325 0.002564798 -0.010044018 0.020437771 -0.0047093676 -0.005941684 0.044757538 0.09230469
-0.059957363 -0.025066422 -0.0054183365 0.12612279 0.15886484 0.14548363 0.12979856 -0.03380241
-0.0059412406 -0.0073174657 -0.0064617447 -0.006428119 -0.0059417537 0.16265604 -0.005941759 -0.004832127
-0.014856407 0.13781404 -0.01675832 0.14548856 -0.006751464 -0.12813337 -0.005417304 -0.044081952
0.025703937 0.10507779 0.089899175 -0.0059418725 0.14506416 -0.0059413305 0.11554217 0.05942741
-0.007545765 -0.010791342 -0.005939578 0.08980073 -0.0059418622 -0.006316376 0.0034362825 -0.008347938
-0.013156862 0.033482615 -0.0059418464 -0.0059414925 -0.0059418674 0.09923322 -0.007809786 -0.015157464
0.18486017 0.052669052 0.09922775 0.06952442 -0.0059408895 0.088887654 0.042468254 -0.005940646
-0.005605376 0.14895578 -0.005941844 -0.0059418567 0.0058454457 -0.005941665 0.10685357 -0.0059417207
-0.0059413468 0.17671736 -0.005941231 -0.0059416736 -0.0059413076 -0.0059407023 0.13143808 -0.0059409086
00000000: 8d82 4dbc 3eed 93bd 7fae c2bb c640 07bc
00000010: 4ac5 88bc 7253 debc 36b9 bbbb 85b3 c2bb
00000020: ef0f 83bd 4079 203e eab5 703d a3b2 c2bb
00000030: bab3 c2bb 1bf5 30bd 7171 7e3d a6fd 063e
00000040: d7b0 c2bb a2fc 313e ff5a 0ebd a88a 993d
00000050: 5fb3 c2bb 8081 6dbd f42e 98bc 2e04 b23c
00000060: deb0 c2bb 29a4 c2bb eab2 c2bb 6d1a c9bb
00000070: 2534 833d f514 3bbd f46c 033e cc8f 16bc
00000080: 819e 043e 52b1 c2bb cab2 c2bb 1401 d13d
00000090: 8aa9 c2bb 58da d33d fe0a 3bbb e80a 083e
000000a0: 473b c13d 1db6 10bc 27d4 043e 98e9 d0bb
000000b0: 6eb0 c2bb 039c d5bb 9a59 233e b0cd 94bc
000000c0: 68cf cd3d 2c16 283b aa8f 24bc 1d6d a73c
000000d0: 0a51 9abb 75b2 c2bb ae53 373d 3e0a bd3d
000000e0: da95 75bd 1958 cdbc 4d8c b1bb 5526 013e
000000f0: 77ad 223e a9f9 143e eae9 043e 6574 0abd
00000100: bdae c2bb 5ac7 efbb 0bbd d3bb f8a2 d2bb
00000110: 0bb3 c2bb 4e8f 263e 16b3 c2bb d256 9ebb
00000120: 4a68 73bc 201f 0d3e bf48 89bc f4fa 143e
00000130: 633b ddbb 6535 03be a483 b1bb 478f 34bd
00000140: 1091 d23c 0633 d73d 0f1d b83d 0ab4 c2bb
00000150: b38b 143e 7eaf c2bb 60a1 ec3d 286a 733d
00000160: 7742 f7bb 2bce 30bc cba0 c2bb 72e9 b73d
00000170: f4b3 c2bb 9af9 cebb 4133 613b cac5 08bc
00000180: e18f 57bc 1125 093d d2b3 c2bb dab0 c2bb
00000190: ffb3 c2bb c93a cb3d 3ce9 ffbb 0357 78bc
000001a0: fc4b 3d3e 81bb 573d eb37 cb3d d262 8e3d
000001b0: cbab c2bb bb0a b63d 31f3 2d3d c0a9 c2bb
000001c0: 4dad b7bb dd87 183e cdb3 c2bb e8b3 c2bb
000001d0: 278b bf3b 4cb2 c2bb 0bd6 da3d c4b2 c2bb
000001e0: a1af c2bb 65f5 343e a8ae c2bb 5fb2 c2bb
000001f0: 4daf c2bb 39aa c2bb b497 063e f4ab c2bb

sequential_1/dense_2/BiasAdd/ReadVariableOp/resource f4 [6]
0.027222533 -0.10130231 0.0969263 0.07633646 -0.008493629 -0.10443709
00000000: ca01 df3c 9677 cfbd 4c81 c63d 4a56 9c3d
00000010: dd28 0bbc 1de3 d5bd

sequential_1/dense_1/MatMul i1 [128, 6272] scale=0.007357449 zero_point=0
-0.13243409 0.051502142 -0.029429795 0.036787245 -0.07357449 -0.095646836 -0.029429795 0.014714898
0.036787245 0.022072347 0.103004284 0.007357449 -0.103004284 -0.036787245 -0.08093194 0.08093194
0.07357449 0.007357449 0.022072347 0.16186388 0.05885959 -0.08093194 -0.13243409 0.103004284
0.08093194 0.014714898 -0.044144694 0.05885959 -0.051502142 -0.051502142 -0.022072347 0.06621704
-0.19129367 0.0 -0.044144694 0.08093194 -0.029429795 -0.12507664 0.05885959 -0.029429795
0.014714898 0.06621704 0.08093194 -0.051502142 0.044144694 -0.036787245 -0.036787245 0.07357449
0.06621704 0.08093194 -0.05885959 0.095646836 0.036787245 0.0 -0.06621704 0.007357449
0.05885959 0.014714898 -0.16922133 -0.029429795 -0.08828939 -0.08093194 0.044144694 -0.007357449
-0.13979153 -0.044144694 -0.029429795 0.095646836 0.06621704 -0.036787245 -0.08828939 -0.014714898
0.022072347 0.095646836 0.022072347 0.13243409 -0.095646836 0.007357449 -0.051502142 0.022072347
0.05885959 0.036787245 0.051502142 0.051502142 0.007357449 -0.044144694 -0.103004284 0.029429795
-0.036787245 -0.08093194 -0.16186388 -0.06621704 -0.103004284 -0.029429795 0.0 -0.014714898
-0.06621704 -0.15450643 -0.07357449 0.0 -0.044144694 -0.05885959 -0.05885959 -0.051502142
0.07357449 0.08828939 -0.08828939 0.007357449 -0.036787245 0.05885959 0.007357449 0.014714898
0.07357449 -0.022072347 0.036787245 0.029429795 -0.051502142 0.022072347 0.0 -0.014714898
-0.051502142 -0.18393622 -0.22072347 -0.044144694 -0.036787245 0.044144694 0.0 -0.007357449
-0.044144694 -0.007357449 -0.08093194 0.051502142 -0.12507664 -0.029429795 -0.022072347 -0.022072347
0.15450643 0.08093194 0.051502142 0.05885959 0.0 0.11771918 0.022072347 -0.014714898
0.022072347 -0.014714898 0.029429795 -0.08093194 -0.05885959 0.08093194 -0.007357449 0.0
0.007357449 -0.14714898 -0.13243409 -0.06621704 0.014714898 0.07357449 0.08093194 0.014714898
-0.029429795 -0.029429795 -0.17657878 -0.022072347 0.022072347 -0.16186388 -0.095646836 0.029429795
-0.07357449 0.014714898 0.095646836 -0.05885959 0.05885959 -0.022072347 0.022072347 0.044144694
-0.044144694 0.036787245 0.0 -0.036787245 0.007357449 0.0 -0.06621704 -0.014714898
0.036787245 -0.12507664 -0.06621704 -0.095646836 -0.06621704 0.05885959 0.0 -0.007357449
-0.08093194 0.007357449 -0.12507664 -0.08828939 0.06621704 -0.12507664 -0.05885959 0.08828939
-0.044144694 0.044144694 0.095646836 0.022072347 0.044144694 0.036787245 -0.08828939 0.029429795
0.022072347 -0.007357449 0.014714898 0.029429795 -0.05885959 -0.14714898 -0.044144694 0.044144694
0.13243409 -0.014714898 -0.095646836 -0.05885959 0.12507664 0.014714898 0.029429795 0.014714898
-0.051502142 0.051502142 -0.11771918 -0.13243409 0.095646836 -0.20600857 -0.07357449 0.036787245
-0.014714898 0.05885959 0.022072347 -0.05885959 0.029429795 -0.08828939 -0.007357449 0.08093194
0.05885959 -0.029429795 -0.007357449 0.029429795 0.08093194 -0.036787245 -0.05885959 0.07357449
0.07357449 0.08828939 -0.044144694 -0.029429795 0.13243409 -0.007357449 0.007357449 0.014714898
00000000: ee07 fc05 f6f3 fc02 0503 0e01 f2fb f50b
00000010: 0a01 0316 08f5 ee0e 0b02 fa08 f9f9 fd09
00000020: e600 fa0b fcef 08fc 0209 0bf9 06fb fb0a
00000030: 090b f80d 0500 f701 0802 e9fc f4f5 06ff
00000040: edfa fc0d 09fb f4fe 030d 0312 f301 f903
00000050: 0805 0707 01fa f204 fbf5 eaf7 f2fc 00fe
00000060: f7eb f600 faf8 f8f9 0a0c f401 fb08 0102
00000070: 0afd 0504 f903 00fe f9e7 e2fa fb06 00ff
00000080: faff f507 effc fdfd 150b 0708 0010 03fe
00000090: 03fe 04f5 f80b ff00 01ec eef7 020a 0b02
000000a0: fcfc e8fd 03ea f304 f602 0df8 08fd 0306
000000b0: fa05 00fb 0100 f7fe 05ef f7f3 f708 00ff
000000c0: f501 eff4 09ef f80c fa06 0d03 0605 f404
000000d0: 03ff 0204 f8ec fa06 12fe f3f8 1102 0402
000000e0: f907 f0ee 0de4 f605 fe08 03f8 04f4 ff0b
000000f0: 08fc ff04 0bfb f80a 0a0c fafc 12ff 0102

sequential_1/dense_2/MatMul f4 [6, 128]
0.007671677 0.004396177 0.098576024 -0.06772925 0.092043415 -0.06573362 -0.13147278 0.15028094
-0.16663861 -0.19416022 0.012162446 -0.006023744 0.15819156 -0.16857094 -0.1694475 0.25756085
0.1495873 -0.23106466 0.15481167 -0.34755293 0.14215921 -0.010747349 -0.08831599 0.106388055
0.008594398 0.0023520084 0.14427872 -0.10879014 0.30075562 -0.14943855 0.055449124 0.015058496
-0.16254883 -0.16424137 0.14325038 -0.065409146 0.16498634 0.0039460496 0.16979763 0.1293861
0.24747355 0.16745865 -0.5918515 -0.15532836 0.10407311 -0.0108525315 0.20761292 -0.17576839
0.29026634 -0.24953926 -0.041047722 0.031267587 -0.11277336 0.016111713 0.011323276 0.22722094
-0.1302013 0.06330477 -0.19716986 -0.061929382 0.17679143 -0.11982882 -0.29251572 -0.47160095
0.16391768 -0.01852399 0.07661666 0.21439716 0.10425945 0.27418 0.01957509 0.010063019
0.12825349 0.23082545 0.12915765 -0.46109444 -0.14614213 0.16621366 0.022347633 -0.15640445
-0.3925759 -0.10682233 0.40555933 0.19540787 0.20801516 -0.0935381 0.08579482 0.3031902
-0.109962575 -0.22131085 -0.1175294 -0.40832382 0.109537706 0.13716547 -0.17797975 -0.068176165
0.12891157 -0.4168561 -0.1981802 -0.06878477 0.109062545 0.07806898 0.34939393 -0.04909306
-0.1384614 0.086799935 -0.006592779 -0.079000846 0.1400008 0.036154002 -0.2993181 0.070813
0.050239503 0.19580628 -0.1726407 0.09801523 0.13826674 0.027769914 -0.12909812 0.20124076
0.17841724 0.03074817 0.17454422 -0.079568855 0.20225888 -0.042906273 -0.032583617 0.06888875
-0.1353629 0.14520541 0.056574844 -0.026454356 -0.1831928 0.04855155 0.0040241564 0.06919949
0.3351249 0.14711337 -0.36402717 0.13117953 0.204104 -0.14767106 0.15521124 -0.3833747
-0.14468828 -0.26147068 0.5197011 -0.18206726 0.16906752 -0.075837106 0.09526319 -0.012862675
-0.03407344 -0.14212365 0.008845999 0.19627546 0.058629964 -0.14153668 -0.37090778 0.120486915
0.013114126 -0.0060109324 -0.19538754 0.14267103 0.08532055 -0.10752036 -0.09968751 0.07833733
0.06622984 0.14612517 0.19504844 0.11265746 0.118890576 0.12983066 -0.08994992 -0.10873321
0.06483045 0.16554543 -0.07476057 0.20903538 0.119080864 -0.1436175 -0.19645528 -0.24850653
-0.053794608 0.005285088 0.06483434 0.16105613 0.005080268 0.18118794 0.092832536 0.5123046
-0.1590662 0.18837544 0.15914397 0.031186052 0.18648571 -0.21175389 -0.18349116 -0.05228306
-0.058176983 0.14779584 -0.06377364 -0.026152277 0.0677903 0.09715824 -0.19765738 0.033313513
0.6687937 -0.14360833 -0.25336316 0.060698103 -0.29673198 -0.11313113 0.093562245 0.0069121392
0.17106017 -0.1243548 -0.06587536 -0.10697881 -0.21632873 -0.1156687 -0.031214543 -0.19782603
-0.1470003 -0.20818406 -0.09757838 0.053000398 -0.14145578 -0.4627394 0.123909175 0.15682507
0.04059309 -0.3344293 0.08804399 0.15343906 -0.20575686 -0.3474209 0.10576578 -0.028359747
-0.13287364 0.18600671 0.15806428 -0.113128625 0.09419885 0.025544459 0.14190902 0.10560716
0.04249853 0.047803644 -0.05501021 0.056565374 0.08830734 0.110710494 0.016125258 -0.030882426
00000000: b162 fb3b ce0d 903b 3ae2 c93d a2b5 8abd
00000010: 4281 bc3d 599f 86bd cda0 06be 3fe3 193e
00000020: 50a3 2abe f0d1 46be ff44 473c d462 c5bb
00000030: f8fc 213e dc9d 2cbe a583 2dbe 04df 833e
00000040: 6a2d 193e 379c 6cbe f386 1e3e 75f2 b1be
00000050: 2f92 113e a615 30bc 04df b4bd fbe1 d93d
00000060: 85cf 0c3c 2724 1a3b cdbd 133e 5dcd debd
00000070: a4fc 993e 6b06 19be 9f1e 633d e9b7 763c
00000080: 3373 26be e42e 28be 3ab0 123e 3bf5 85bd
00000090: 2ef2 283e dd4d 813b 6edf 2d3e ca7d 043e
000000a0: b569 7d3e 487a 2b3e 9483 17bf 660e 1fbe
000000b0: 4824 d53d d1ce 31bc 7b98 543e a1fc 33be
000000c0: ca9d 943e 3887 7fbe a821 28bd 7112 003d
000000d0: b8f5 e6bd b6fc 833c 4385 393c 9bac 683e
000000e0: 7d53 05be eea5 813d e5e6 49be aaa9 7dbd
000000f0: d008 353e d068 f5bd 9fc4 95be ae75 f1be
00000100: 09da 273e 9fbf 97bc 32e9 9c3d ee8a 5b3e
00000110: fb85 d53d 5261 8c3e f05b a03c 5cdf 243c
00000120: e254 033e 825d 6c3e e741 043e 9214 ecbe
00000130: 48a6 15be ea33 2a3e 6212 b73c 7d28 20be
00000140: b5ff c8be aac5 dabd 79a5 cf3e 0019 483e
00000150: ed01 553e e790 bfbd 32b5 af3d bf3b 9b3e
00000160: 0f34 e1bd 509f 62be 41b3 f0bd d20f d1be
00000170: 4e55 e03d 1b75 0c3e 5340 36be f29f 8bbd
00000180: 6501 043e 2a6e d5be c0ef 4abe 08df 8cbd
00000190: 2f5c df3d a1e2 9f3d c3e3 b23e ce15 49bd
000001a0: d3c8 0dbe 2ac4 b13d 3d08 d8bb 32cb a1bd
000001b0: 5f5c 0f3e 3816 143d 3940 99be 6806 913d
000001c0: f0c7 4d3d 7181 483e b9c8 30be 35bc c83d
000001d0: cc95 0d3e bb7d e33c 4c32 04be 0f12 4e3e
000001e0: 02b3 363e 96e3 fb3c b8bb 323e fff4 a2bd
000001f0: f41c 4f3e 7dbe 2fbd 6676 05bd 8c15 8d3d
00000200: 929c 0abe bab0 143e 06bb 673d ceb6 d8bc
00000210: e596 3bbe fddd 463d 12dd 833b 76b8 8d3d
00000220: 7e95 ab3e e3a4 163e c561 babe ed53 063e
00000230: a400 513e 1537 17be b2ef 1e3e b049 c4be
00000240: 2a29 14be 7cdf 85be 220b 053f d76f 3abe
00000250: 0920 2d3e 7c50 9bbd 5919 c33d f8bd 52bc
00000260: 9790 0bbd dd88 11be cfee 103c 6ffc 483e
00000270: f925 703d feee 10be a0e7 bdbe d8c1 f63d
00000280: a2dc 563c 5bf7 c4bb ac13 48be 5b18 123e
00000290: 8abc ae3d a233 dcbd f728 ccbd 526f a03d
000002a0: 83a3 873d d6a1 153e c7ba 473e f4b8 e63d
000002b0: e77c f33d 54f2 043e aa37 b8bd 84af debd
000002c0: d4c5 843d be84 293e 121c 99bd 5f0d 563e
000002d0: abe0 f33d 7710 13be 932b 49be 7f78 7ebe
000002e0: bc57 5cbd 882e ad3b dec7 843d e6eb 243e
000002f0: 6078 a63b 5589 393e fc1e be3d 6526 033f
00000300: 40e2 22be 7ee5 403e a3f6 223e e479 ff3c
00000310: 1cf6 3e3e 03d6 58be 1be5 3bbe c326 56bd
00000320: fd4a 6ebd cb57 173e c19b 82bd 4d3d d6bc
00000330: a4d5 8a3d e6fa c63d b266 4abe c073 083d
00000340: 1036 2b3f 100e 13be d1b8 81be 939e 783d
00000350: 41ed 97be 4bb1 e7bd 909d bf3d 3a7f e23b
00000360: 662a 2f3e bbad febd a9e9 86bd b517 dbbd
00000370: 4785 5dbe b6e3 ecbd a4b5 ffbc e892 4abe
00000380: 3f87 16be 342e 55be 2cd7 c7bd f216 593d
00000390: c9d9 10be 2eec ecbe 18c4 fd3d c096 203e
000003a0: f144 263d 513a abbe 6850 b43d 211f 1d3e
000003b0: edb1 52be 27e1 b1be bb9b d83d b352 e8bc
000003c0: 0710 08be 8b78 3e3e 9adb 213e fbaf e7bd
000003d0: 54eb c03d 9d42 d13c 9950 113e 9148 d83d
000003e0: f012 2e3d c1cd 433d 6352 61bd 18b1 673d
000003f0: 7bda b43d 2fbc e23d 1e19 843c 24fd fcbc

sequential_1/conv2d_1/Conv2D f4 [32, 3, 3, 3]
-0.07057537 0.14198342 0.1251853 -0.119730674 -0.13870983 -0.02586979 -0.17619604 -0.024726503
-0.1528045 0.0012764697 0.13872118 0.1474317 0.009800015 0.007618449 -0.04627436 -0.19415791
-0.054590255 0.0128342435 0.22805995 0.052557807 0.13745399 0.18143089 0.12134423 0.01360236
-0.12555061 -0.19947046 0.010148415 -0.18976328 -0.087287106 -0.15668051 -0.099922925 -0.17395018
-0.1001736 -0.061738443 0.04190352 0.08093563 0.07794938 -0.045365095 0.17041951 0.2122491
0.15491141 0.08219237 0.08995243 0.18860294 0.0033616244 0.14037679 0.06705934 0.12096489
-0.13206132 0.041802768 -0.10432473 -0.1003305 -0.21686713 -0.11416369 -0.07522715 -0.04282618
0.041122537 0.26316246 0.1518997 0.19707465 -0.11080601 -0.12040175 -0.1672407 -0.10852774
-0.15463758 -0.13808008 -0.09631572 -0.09039909 0.042295106 -0.047248635 -0.07680045 -0.11894548
-0.12507951 -0.06848081 -0.04203133 -0.081741154 -0.13754167 0.072565734 0.03023426 -0.095503524
0.019742098 -0.22332059 -0.026594847 0.10231853 -0.25746486 0.018098429 0.13648129 -0.33458346
0.16652744 -0.0072737774 -0.23242658 -0.00048801058 0.12866898 -0.23705377 0.09398176 0.0043569426
-0.26049936 0.092549354 -0.10982465 -0.15356463 0.019338675 -0.0252891 0.08827891 0.18489142
-0.036163036 0.057803504 0.20490617 -0.10567272 -0.22199458 -0.05046642 -0.15011232 -0.036582712
-0.021960981 0.08004706 -0.078699544 0.08425896 -0.12445911 -0.10058987 0.12701051 -0.015382392
-0.09992422 0.02228656 -0.1724108 0.031191139 -0.100683704 -0.051668487 -0.06519674 -0.12611136
0.028630843 0.100295 0.050647113 -0.058863044 0.040107757 0.111384794 -0.17536543 -0.107805185
-0.12482156 -0.18259497 -0.060523212 -0.019855324 0.0155388685 -0.017070372 -0.15174519 -0.21583423
0.049157884 -0.04657868 -0.093146905 -0.05275323 -0.066143 -0.1268853 -0.077071086 0.0028179707
-0.1607251 -0.056347277 -0.10079614 -0.09925513 0.013894214 -0.035816953 -0.24418041 0.060764723
-0.0025084426 -0.19563355 -0.0031302494 -0.061172556 0.037082236 0.0129881995 -0.09290651 -0.13357647
-0.10459684 0.07786897 -0.02776433 -0.052141033 0.25119194 0.1669763 0.034954205 0.03732157
0.084086105 0.004125027 -0.07118231 0.079112515 0.20507452 0.21448126 0.063397616 -0.07943667
-0.13903925 -0.04788407 -0.035575382 -0.17392412 -0.19684543 -0.075897284 -0.1990498 -0.19338419
0.08561609 0.007474856 -0.030041335 0.016928589 0.09380731 0.114845105 -0.029401535 -0.034830686
-0.0050457693 -0.14444086 0.0089654885 -0.039821383 -0.023558062 0.16968365 0.06589896 -0.0037576898
-0.054896265 0.10727943 0.06602724 0.014540938 -0.051381763 -0.08964997 -0.13771541 -0.009056051
-0.1563532 -0.11740669 -0.11310831 -0.21699658 -0.09365872 -0.13233921 -0.18653226 -0.20579942
-0.13814734 0.1652471 0.050685212 0.04393225 0.053346843 0.13405904 -0.041457035 0.111675255
-0.022981897 -0.11337701 0.14280145 0.117997594 0.13423105 0.1494804 0.050785366 0.044437416
0.00972174 0.072292574 0.05753929 0.16212754 0.00700421 0.091787726 -0.012491322 -0.23258196
0.015317793 0.040033326 -0.2639618 -0.045748513 0.14901981 0.21016239 0.18690494 0.048113164
00000000: d289 90bd 1a64 113e 9330 003e 5b35 f5bd
00000010: f309 0ebe e2ec d3bc bc6c 34be 3c8f cabc
00000020: c878 1cbe 374f a73a ed0c 0e3e 56f8 163e
00000030: 3e90 203c 2fa4 f93b 2f8a 3dbd 55d1 46be
00000040: 089a 5fbd b846 523c 8c88 693e db46 573d
00000050: bdc0 0c3e 05c9 393e 5383 f83d 6fdc 5e3c
00000060: 5790 00be fc41 4cbe 8a45 263c 4e51 42be
00000070: 95c3 b2bd db70 20be 64a4 ccbd ff1f 32be
00000080: d127 cdbd 73e1 7cbd 06a3 2b3d 94c1 a53d
00000090: eda3 9f3d c0d0 39bd 7482 2e3e d457 593e
000000a0: 19a1 1e3e 7954 a83d fb38 b83d 2121 413e
000000b0: b34e 5c3b efbe 0f3e 6856 893d 71bc f73d
000000c0: 153b 07be 6139 2b3d 34a8 d5bd 147a cdbd
000000d0: 6b12 5ebe a7ce e9bd b110 9abd 816a 2fbd
000000e0: 1b70 283d 3bbd 863e 988b 1b3e f0cd 493e
000000f0: 43ee e2bd 3195 f6bd 2541 2bbe cb43 debd
00000100: 5059 1ebe dd64 0dbe 2d41 c5bd 2823 b9bd
00000110: a23d 2d3d c987 41bd 8e49 9dbd b099 f3bd
00000120: d814 00be ab3f 8cbd 0b29 2cbd e867 a7bd
00000130: b9d7 0cbe 589d 943d d7ad f73c 5a97 c3bd
00000140: 2eba a13c 27ae 64be 70dd d9bc 618c d13d
00000150: 6fd2 83be 2843 943c c0c1 0b3e 864e abbe
00000160: 2b86 2a3e de58 eebb 3c01 6ebe acdb ffb9
00000170: cdc1 033e 39be 72be 8279 c03d afc4 8e3b
00000180: 2c60 85be 848a bd3d bfeb e0bd 0c40 1dbe
00000190: 246c 9e3c 162b cfbc 93cb b43d 2d54 3d3e
000001a0: b11f 14bd 5ec3 6c3d ecd2 513e f06a d8bd
000001b0: 8c52 63be e0b5 4ebd 0bb7 19be c1d7 15bd
000001c0: 84e7 b3bc b7ef a33d 3a2d a1bd f68f ac3d
000001d0: 6be4 febd 1002 cebd 0b0f 023e 6e06 7cbc
000001e0: 12a5 ccbd 4e92 b63c 758c 30be 8f84 ff3c
000001f0: 4233 cebd 56a2 53bd de85 85bd 5623 01be
00000200: 3b8b ea3c 7767 cd3d 5973 4f3d 601a 71bd
00000210: 0848 243d b61d e43d ff92 33be f7c8 dcbd
00000220: 72a2 ffbd 2dfa 3abe 30e7 77bd a2a7 a2bc
00000230: bd96 7e3c 2ad7 8bbc 1763 1bbe a603 5dbe
00000240: c759 493d 49c9 3ebd cec3 bebd c513 58bd
00000250: fb75 87bd 38ee 01be 72d7 9dbd b4ad 383b
00000260: 1f95 24be 67cc 66bd 356e cebd 4646 cbbd
00000270: 8fa4 633c ccb4 12bd 6e0a 7abe 6ee4 783d
00000280: af64 24bb 2954 48be df24 4dbb 1390 7abd
00000290: 8be3 173d 75cc 543c c545 bebd 45c8 08be
000002a0: de36 d6bd c479 9f3d 0572 e3bc d691 55bd
000002b0: 3b9c 803e d6fb 2a3e 242c 0f3d 81de 183d
000002c0: 5635 ac3d 3c2b 873b 08c8 91bd be05 a23d
000002d0: 0eff 513e faa0 5b3e 9cd6 813d b1af a2bd
000002e0: 4e60 0ebe 1622 44bd 7eb7 11bd 2a19 32be
000002f0: d991 49be 0970 9bbd b6d3 4bbe 8106 46be
00000300: 7d57 af3d a3ef f43b 3f19 f6bc d3ad 8a3c
00000310: 0c1e c03d e933 eb3d 7ddb f0bc 9faa 0ebd
00000320: fb56 a5bb 4ee8 13be fce3 123c bf1b 23bd
00000330: d6fc c0bc 8dc1 2d3e 09f6 863d 9343 76bb
00000340: e8da 60bd 51b5 db3d 4a39 873d 1d3d 6e3c
00000350: af75 52bd 679a b7bd 4505 0dbe d55f 14bc
00000360: 0e1b 20be eb72 f0bd 54a5 e7bd 5a34 5ebe
00000370: 25d0 bfbd ee83 07be 5002 3fbe 15bd 52be
00000380: 7f76 0dbe 8936 293e 4c9b 4f3d 4ef2 333d
00000390: 3882 5a3d c646 093e dace 29bd ffb5 e43d
000003a0: 8844 bcbc 3532 e8bd 8b3a 123e b9a8 f13d
000003b0: dd73 093e 6411 193e 5104 503d 0204 363d
000003c0: ef47 1f3c 210e 943d 52ae 6b3d c304 263e
000003d0: 9283 e53b 34fb bb3d 67a8 4cbc f729 6ebe
000003e0: 7bf7 7a3c fcf9 233d 0026 87be cb62 3bbd
000003f0: a698 183e cf34 573e 0264 3f3e 4f12 453d

sequential_1/conv2d_2/Conv2D i1 [32, 3, 3, 32]
-23 9 31 -2 8 10 -9 2
-37 -11 -1 -56 -2 17 -24 28
5 5 -23 2 32 37 -11 17
4 20 40 25 12 36 -8 -15
-16 -29 -3 -21 14 -16 -13 -31
-55 -30 8 -72 16 23 -4 -16
-23 11 -1 7 39 -7 -10 10
-22 22 6 -64 18 7 5 -17
-8 -56 1 -3 22 13 -7 -5
-51 -11 10 -29 -12 7 -6 -14
-32 -9 -31 -22 14 55 -33 -3
-6 -19 9 -3 14 -8 -25 -5
7 -20 -10 -4 35 -12 -12 -6
-72 -13 11 -73 6 -7 2 18
-33 -2 -13 16 13 3 -21 -7
-20 -1 16 -12 20 28 -10 -13
-4 -48 -37 -25 27 8 -20 -25
-98 -11 9 -15 -21 3 -24 -6
-58 23 -33 3 16 -13 -23 18
-14 -19 1 -94 1 16 -28 -5
-12 -53 -16 -15 -9 7 -28 -13
-114 -8 -25 -40 -4 -20 -13 -13
-72 12 -42 -9 -14 -56 -36 11
-13 -34 -12 -30 -8 -17 -49 1
-13 -23 -18 5 14 -12 -12 -42
-94 -9 11 -19 20 -26 -4 -7
-39 24 -4 -19 6 -28 -8 13
-11 -21 8 -33 1 9 -34 1
-12 -49 -4 -16 14 2 -27 21
-127 -13 0 -28 15 20 8 13
-33 24 -22 -19 18 -31 -30 12
-23 9 -2 -93 17 11 -26 -9
00000000: e909 1ffe 080a f702 dbf5 ffc8 fe11 e81c
00000010: 0505 e902 2025 f511 0414 2819 0c24 f8f1
00000020: f0e3 fdeb 0ef0 f3e1 c9e2 08b8 1017 fcf0
00000030: e90b ff07 27f9 f60a ea16 06c0 1207 05ef
00000040: f8c8 01fd 160d f9fb cdf5 0ae3 f407 faf2
00000050: e0f7 e1ea 0e37 dffd faed 09fd 0ef8 e7fb
00000060: 07ec f6fc 23f4 f4fa b8f3 0bb7 06f9 0212
00000070: dffe f310 0d03 ebf9 ecff 10f4 141c f6f3
00000080: fcd0 dbe7 1b08 ece7 9ef5 09f1 eb03 e8fa
00000090: c617 df03 10f3 e912 f2ed 01a2 0110 e4fb
000000a0: f4cb f0f1 f707 e4f3 8ef8 e7d8 fcec f3f3
000000b0: b80c d6f7 f2c8 dc0b f3de f4e2 f8ef cf01
000000c0: f3e9 ee05 0ef4 f4d6 a2f7 0bed 14e6 fcf9
000000d0: d918 fced 06e4 f80d f5eb 08df 0109 de01
000000e0: f4cf fcf0 0e02 e515 81f3 00e4 0f14 080d
000000f0: df18 eaed 12e1 e20c e909 fea3 110b e6f7
